model.pt (torch, 14748 bytes, 9 tensors)

weight f4 [24, 7]
0.4496139 -0.39367154 -0.2853945 0.41229212 0.7575776 -0.29379594 -0.22318114 0.21567424
-0.58288294 0.31655994 -0.1446712 -0.0441026 0.15229127 -0.39662966 0.35106048 0.07459138
-0.10000231 -0.07778704 -0.74861914 0.23834932 -0.015768295 0.01444309 -0.7344118 0.13863525
-0.124278456 0.15756424 -0.33215323 0.038358822 0.3807804 0.4988661 -0.08521393 -0.07016689
0.2799372 -0.4594837 0.19122794 -0.20933919 -0.79056585 0.17899206 0.07388643 0.41010818
0.09104005 0.0015810999 -0.40130016 -0.18825811 0.064648084 0.12621288 0.797194 0.026472624
-0.09131417 -0.03761368 0.07292775 0.38506785 0.72813606 0.14702004 -0.07690858 -0.09095423
-0.12995063 0.20416237 0.6463382 -0.4233038 -0.1207278 0.30687666 0.12817796 0.27121085
-0.07881672 0.47276294 0.32391185 -0.50330645 -0.5984666 0.23759995 0.2651793 -0.28788006
0.26943058 -0.12752277 -0.61452943 -0.008840446 0.084162384 -0.3063106 0.7586376 0.5837657
0.03604894 0.08346225 -0.59828705 0.08558102 0.041369095 -0.91715896 -0.36451176 0.27246892
0.35650614 -0.10826512 0.05087843 0.47684342 -0.76047486 0.0076765167 0.012323757 -0.08795226
0.5334231 -0.03911145 0.10190293 0.077498555 0.037235785 -0.12545899 -0.16498446 0.61343867
0.25253904 -0.07565099 -0.12020632 -0.46652862 0.28556144 -0.06344607 -0.524927 0.3113885
-0.06755738 0.1738965 0.15319267 0.23214096 -0.27038884 -0.09046454 0.0048385863 -0.09136698
-0.3878949 -0.27225673 0.2973611 -0.37107745 -0.27912292 -0.18355963 0.08107915 0.0417064
-0.27678624 -0.29324102 0.32543835 0.016287638 0.3289708 -0.2003449 0.171467 -0.31823698
-0.18120733 0.9117628 -0.022220809 -0.060700465 0.020518022 0.026124606 -0.12295428 -0.537436
-0.2538752 0.5812044 -0.17562978 -0.35308856 0.027577808 -0.4290056 0.26225227 0.11582715
0.24583462 0.051328953 -0.05550588 0.06584964 -0.16100445 0.014227132 0.90924793 0.03587657
0.07763665 -0.5826642 0.3752543 0.5167945 -0.42099637 0.07608115 -0.12519783 -0.17631343
00000000: cb33 e63e 518f c9be 3a1f 92be f417 d33e
00000010: 9bf0 413f 6c6c 96be 9989 64be b5d9 5c3e
00000020: d137 15bf 2514 a23e b024 14be eea4 34bd
00000030: 3ef2 1b3e 0b13 cbbe 33be b33e 5ec3 983d
00000040: 03ce ccbd d04e 9fbd 81a5 3fbf d811 743e
00000050: 832c 81bc b6a2 6c3c 6902 3cbf 66f6 0d3e
00000060: b485 febd 8558 213e fd0f aabe 241e 1d3d
00000070: a6f5 c23e 616b ff3e a484 aebd a9b3 8fbd
00000080: ee53 8f3e 7341 ebbe 42d1 433e 035d 56be
00000090: 8662 4abf b249 373e c551 973d b3f9 d13e
000000a0: 3573 ba3d e93c cf3a 3777 cdbe bcc6 40be
000000b0: 3766 843d f33d 013e e814 4c3f 1edd d83c
000000c0: ec02 bbbd cd10 1abd 255b 953d 9d27 c53e
000000d0: 2067 3a3f 6c8c 163e 3f82 9dbd 3646 babd
000000e0: c711 05be f10f 513e 6c76 253f 47bb d8be
000000f0: 2340 f7bd f01e 9d3e 1541 033e 26dc 8a3e
00000100: a96a a1bd fc0d f23e c6d7 a53e b1d8 00bf
00000110: 1b35 19bf 674d 733e 95c5 873e 0465 93be
00000120: cef2 893e 5495 02be cd51 1dbf 85d7 10bc
00000130: 545d ac3d bed4 9cbe 1336 423f ab71 153f
00000140: 0ea8 133d 42ee aa3d 5729 19bf 1a45 af3d
00000150: a472 293d eeca 6abf 49a1 babe 0c81 8b3e
00000160: f987 b63e 1aba ddbd e765 503d d224 f43e
00000170: 7bae 42bf 4a8b fb3b 95e9 493c 5120 b4bd
00000180: 6b8e 083f 5433 20bd 7cb2 d03d 90b7 9e3d
00000190: 8d84 183d 5278 00be b0f1 28be 510a 1d3f
000001a0: cc4c 813e e8ee 9abd bb2e f6bd d7dc eebe
000001b0: 1c35 923e 03f0 81bd 9e61 06bf 506e 9f3e
000001c0: 865b 8abd ed11 323e 8ade 1c3e 5cb6 6d3e
000001d0: 6870 8abe 7945 b9bd 018d 9e3b 9c1e bbbd
000001e0: 299a c6be 3c65 8bbe b73f 983e ddfd bdbe
000001f0: 33e9 8ebe 0ef7 3bbe d30c a63d 55d4 2a3d
00000200: edb6 8dbe b023 96be db9f a63e a76d 853c
00000210: dc6e a83e 3727 4dbe 0c95 2f3e f5ef a2be
00000220: 6a8e 39be 4969 693f 6a08 b6bc 0da1 78bd
00000230: 6915 a83c 4503 d63c 74cf fbbd 6895 09bf
00000240: eefb 81be d0c9 143f 4bd8 33be 06c8 b4be
00000250: dbea e13c 9fa6 dbbe ee45 863e c936 ed3d
00000260: 12bc 7b3e 4f3e 523d 225a 63bd 2ddc 863d
00000270: 5ade 24be eb18 693c 79c4 683f 4ff3 123d
00000280: f7ff 9e3d 7b29 15bf 5521 c03e a54c 043f
00000290: d68c d7be 6fd0 9b3d dc33 00be 828b 34be

bias f4 [24]
-0.1673877 -0.194141 -0.19426668 -0.37955457 -0.02680396 -0.025512693 0.26293892 -0.3616298
0.43721047 0.04085964 -0.4091233 0.14305586 0.040617835 -0.2380586 0.16463378 -0.067244954
0.23286468 0.24554408 0.4015185 -0.28609732 -0.19404632 0.27487323 -0.523294 -0.07398906
00000000: ae67 2bbe e6cc 46be d8ed 46be fa54 c2be
00000010: fa93 dbbc ffff d0bc ee9f 863e 8b27 b9be
00000020: 0dda df3e 705c 273d 9c78 d1be 3c7d 123e
00000030: e35e 263d a2c5 73be c295 283e b9b7 89bd
00000040: 1474 6e3e e86f 7b3e d593 cd3e 597b 92be
00000050: 14b4 46be 2fbc 8c3e 98f6 05bf 9487 97bd

weight f4 [24, 24]
0.0040119123 0.45815164 -0.4148849 0.36177355 0.24673289 -0.050094575 0.079078674 0.22354186
-0.26888293 -0.5804529 0.29445297 -0.2867159 -0.19105364 0.022242542 -0.080247074 -0.54974294
0.069392696 -0.064475715 0.22656079 0.31449363 -0.8612021 0.30950138 -0.12477392 0.23309228
-0.32722807 0.099738926 0.39895126 -0.24339923 -0.30453396 -0.80985165 0.4411991 0.05366133
0.0024997743 0.08433834 -0.45691976 0.8079894 0.3214693 0.24752432 0.1601844 0.067636624
-0.15091518 -0.06243372 -0.044594508 -0.083525345 -0.0020828818 -0.32084763 -0.5025803 0.06662283
-0.0011387564 0.03753976 0.211153 -0.41219723 -0.34540614 -0.7558796 -0.52078986 -0.5331295
-0.2164993 0.35939643 -0.4793469 0.67946553 -0.061787162 0.6584195 -0.008351186 -0.12777151
0.049339008 0.04193257 0.24853428 0.6650886 0.12504813 -0.22194146 -0.26683575 -0.0059465757
-0.22992311 -0.03717286 0.043995373 -0.079620965 0.22146188 0.12863459 0.24997483 -0.5051607
-0.24137238 -0.29525974 -0.090874285 -0.012287655 0.14689949 -2.037951 0.2027536 0.089771084
-0.014909184 0.1910186 0.051606838 -0.46801865 0.60649157 0.1421453 0.0664238 -0.23035066
-0.43703678 0.33648992 0.44147322 0.3543843 0.077101 0.14404656 0.27190298 -0.2536878
-0.5166231 0.19509155 -0.063201 -0.0070597148 0.3729957 -0.0667967 0.27066624 -0.13825113
0.30028135 -0.22099283 -0.4127198 0.26574954 -0.17368253 -0.06429763 0.17471422 0.06980439
0.44244066 -0.07392184 0.20209993 -0.16013701 0.07447343 0.313971 -0.13796085 0.114829265
0.29490408 -0.011729048 0.51005423 0.3579731 0.1923138 0.2991138 -0.3263372 -0.13060904
-0.11682623 -0.2013846 -0.3031445 0.24021077 -0.015385744 -0.030177154 -0.15663457 -0.13145256
0.18208183 0.038027126 0.45988646 -0.06775121 -0.5109018 -0.05990411 0.12122647 0.28236932
0.0064586746 -0.22135785 0.030548414 0.847177 0.10801207 -0.13236883 0.040695388 -0.19720325
-0.05029842 -0.2884505 -0.13636218 -0.2786721 -0.32200158 -0.13606995 -0.23883675 0.1682457
-0.35826367 -0.4438706 -0.2738003 0.16023305 0.20599054 0.3502082 -0.20598748 -0.7534168
-0.10626416 -0.12169501 -0.12231479 -0.056318015 0.18958817 -1.3540586 0.2841396 -0.42735904
-0.023738584 0.036497407 -0.08252339 -0.25634944 0.04782224 -0.038128626 -0.4604316 0.16106339
-0.044891912 -0.2278776 0.043116536 -0.42227438 -0.03716052 0.20218274 -0.48354995 -0.5611884
0.33337095 -0.3355345 0.095048115 -0.31253716 0.087227784 -0.7095492 0.014244826 -0.17947571
0.074019246 -0.17930293 0.019616144 0.3376454 -0.07261385 -0.03703933 -0.6804635 -1.2637614
-0.36577436 0.23221321 -0.38978434 -0.18708031 -0.37142968 -0.12234214 -0.08805872 -0.58708006
0.41377068 -0.10517111 0.046966966 -0.073249415 -0.44696498 -0.39654535 0.083692655 -0.17198414
-0.09099555 0.0060968315 0.07401375 0.15155396 -0.13385619 0.08895577 -0.24378332 0.7694489
-0.36853385 0.068396695 0.30308008 -0.06939368 -0.0694402 -0.026594436 -0.3018955 -0.0060359538
0.0060438914 0.28714466 -0.20698346 0.39904886 0.686148 0.12334324 -0.36509123 -0.24719886
00000000: 5c76 833b da92 ea3e cb6b d4be 623a b93e
00000010: 8ca7 7c3e f82f 4dbd 00f4 a13d 28e8 643e
00000020: 06ab 89be 9098 14bf 8ac2 963e 6dcc 92be
00000030: 91a3 43be fe35 b63c 9458 a4bd f4bb 0cbf
00000040: c21d 8e3d d80b 84bd 8dff 673e 4f05 a13e
00000050: be77 5cbf f776 9e3e 7889 ffbd beaf 6e3e
00000060: 708a a7be ec43 cc3d 5743 cc3e a63d 79be
00000070: e0eb 9bbe 7052 4fbf d9e4 e13e fccb 5b3d
00000080: 41d3 233b 94b9 ac3d 63f1 e9be 65d8 4e3f
00000090: a097 a43e 0477 7d3e 6107 243e 1285 8a3d
000000a0: 8289 1abe 80ba 7fbd bba8 36bd 560f abbd
000000b0: f580 08bb 2446 a4be 1aa9 00bf 8d71 883d
000000c0: 5342 95ba 4bc3 193d 7e38 583e 840b d3be
000000d0: 13d9 b0be 5381 41bf 7c52 05bf 2d7b 08bf
000000e0: feb1 5dbe cf02 b83e f56c f5be 74f1 2d3f
000000f0: 8914 7dbd 2e8e 283f 6ad3 08bc 89d6 02be
00000100: b317 4a3d 7dc1 2b3d c57f 7e3e 3f43 2a3f
00000110: 9e0c 003e 9f44 63be b29e 88be 7edb c2bb
00000120: f770 6bbe 9242 18bd 7e34 343d 5110 a3bd
00000130: e7c6 623e c9b8 033e 67f9 7f3e 3652 01bf
00000140: 522a 77be 492c 97be 4c1c babd 2952 49bc
00000150: d26c 163e ca6d 02c0 a49e 4f3e e7d9 b73d
00000160: a645 74bc 619a 433e b161 533d 24a0 efbe
00000170: 0843 1b3f 8a8e 113e 3409 883d 0be1 6bbe
00000180: 49c3 dfbe 6848 ac3e c708 e23e dc71 b53e
00000190: 21e7 9d3d f180 133e de36 8b3e 5ee3 81be
000001a0: 6941 04bf 14c6 473e 876f 81bd 2e55 e7bb
000001b0: 4bf9 be3e b5cc 88bd c494 8a3e b491 0dbe
000001c0: 7abe 993e f24b 62be 0250 d3be 5310 883e
000001d0: d5d9 31be 7aae 83bd 49e8 323e 9bf5 8e3d
000001e0: 9587 e23e 5564 97bd 49f3 4e3e f5fa 23be
000001f0: 8785 983d cfc0 a03e 9c45 0dbe 9b2b eb3d
00000200: abfd 963e 312b 40bc ea92 023f 4048 b73e
00000210: e9ed 443e 7225 993e ab15 a7be 60be 05be
00000220: 9742 efbd c437 4ebe c235 9bbe d0f9 753e
00000230: 7d14 7cbc 1436 f7bc d064 20be 809b 06be
00000240: a973 3a3e 55c2 1b3d 3d76 eb3e 25c1 8abd
00000250: 76ca 02bf 035e 75bd 9545 f83d b692 903e
00000260: 4aa3 d33b a2ab 62be ab40 fa3c 98e0 583f
00000270: 6f35 dd3d b28b 07be 35b0 263d a6ef 49be
00000280: b705 4ebd c9af 93be 87a2 0bbe 1cae 8ebe
00000290: 64dd a4be ec55 0bbe 9f91 74be 9a48 2c3e
000002a0: 566e b7be 0243 e3be 8e2f 8cbe 2214 243e
000002b0: 2fef 523e 7d4e b33e 62ee 52be ecdf 40bf
000002c0: 06a1 d9bd 3c3b f9bd 2d80 fabd b8ad 66bd
000002d0: 6723 423e cb51 adbf bf7a 913e cece dabe
000002e0: 6b77 c2bc 4e7e 153d 0602 a9bd 3c40 83be
000002f0: 41e1 433d c32c 1cbd b1bd ebbe cded 243e
00000300: 95e0 37bd bf58 69be f79a 303d 5934 d8be
00000310: a135 18bd fe08 4f3e dc93 f7be 0baa 0fbf
00000320: 99af aa3e 2ecb abbe 96a8 c23d df04 a0be
00000330: 7ba4 b23d 04a5 35bf 2163 693c 7bc8 37be
00000340: 6797 973d 309b 37be 09b2 a03c dcdf ac3e
00000350: 92b6 94bd 8db6 17bd db32 2ebf efc2 a1bf
00000360: c746 bbbe 4dc9 6d3e d091 c7be fb91 3fbe
00000370: 082c bebe 848e fabd 2158 b4bd e14a 16bf
00000380: c0d9 d33e f363 d7bd 6f60 403d ca03 96bd
00000390: 98d8 e4be fe07 cbbe 0e67 ab3d 9c1c 30be
000003a0: e05b babd eec7 c73b 8594 973d f630 1b3e
000003b0: 9911 09be 712e b63d 56a2 79be 9afa 443f
000003c0: 78b0 bcbe 9113 8c3d 502d 9b3e 461e 8ebd
000003d0: aa36 8ebd 93dc d9bc 0c92 9abe 40c9 c5bb
000003e0: d60b c63b a004 933e 79f3 53be 2250 cc3e
000003f0: 65a7 2f3f 619b fc3d 3ded babe b321 7dbe

bias f4 [24]
-0.0060659177 0.0027432165 -0.102941185 -0.103606194 -0.06321423 0.024675898 0.26299372 0.28456756
0.3034882 0.09338354 -0.25376633 0.2017043 0.15379785 -0.21415271 -0.23067829 0.16036485
0.006684513 -0.25255015 0.20651269 0.047633413 0.2241394 0.03830515 0.30326295 0.033120513
00000000: 9bc4 c6bb 89c7 333b d4d2 d2bd 7c2f d4bd
00000010: 7676 81bd 1c25 ca3c 1da7 863e d7b2 913e
00000020: ce62 9b3e df3f bf3d a9ed 81be 928b 4e3e
00000030: 2f7d 1d3e d94a 5bbe ee36 6cbe af36 243e
00000040: c209 db3b 414e 81be 1078 533e 411b 433d
00000050: cd84 653e dce5 1c3d 4845 9b3e 60a9 073d

weight f4 [24, 24]
0.17982848 -0.5993398 -1.2600672 0.12865318 -1.354133 -0.08427424 0.069896504 0.061466936
0.1973383 0.14266334 0.054871976 0.008559633 0.3470081 -0.67478406 -0.26019973 -0.42896134
-0.030039215 -1.5331669 -0.5838689 -1.6133499 -0.050374314 -0.0015442239 0.039433908 0.24346866
-0.28913558 0.046195608 0.2057099 -0.0045010126 -0.08183267 -0.0054410025 0.008212824 -0.025653208
-0.36101508 0.059546836 0.021640228 -0.07253319 0.176129 -0.07880357 -1.0565368 0.19021897
-1.6152649 0.37930575 -0.1665059 0.38223267 0.10887429 -0.96129084 0.16790146 0.65473986
0.21765572 -0.5528529 0.21999823 -1.9151183 -0.3213053 0.60467446 -0.2905849 -0.023141576
-0.11887949 0.019606117 -0.2458102 1.1637102 -0.7153912 0.09135197 0.34685743 0.1485702
0.26101348 -0.12585686 0.79607785 -0.40189096 -0.33067623 0.28054598 0.24157125 -0.37657988
-0.23363899 -0.17728391 -0.023916712 0.20532571 0.023450246 -0.04674748 -0.055501584 -0.20398605
-0.6610227 0.033862736 0.35992208 -0.064649 0.0990784 -0.16281469 -0.64740056 0.105002426
-0.32339805 -0.07564791 -0.03532958 0.18806228 0.050633043 -1.1928513 -1.8703097 0.6329348
-0.5783403 0.05142015 0.52899325 -0.02103654 0.003957283 0.27176878 -0.0034907993 0.0015046899
0.20602588 0.1769476 0.62426054 0.66631514 0.19459027 0.18283056 -0.79337406 0.55895644
-0.010532244 0.5304582 0.793587 0.11858605 0.12782988 0.036064737 0.078775056 0.38288367
0.28223297 0.14500912 0.18013284 -0.33873457 -0.14496443 -0.023024146 0.09763714 -1.4176023
-0.46691692 0.020079395 0.39328048 -0.09681412 -0.7593452 -0.187524 -0.8430674 0.36310077
-1.1091464 0.4506504 0.06762975 -0.19523767 -0.019437725 -1.5559837 -0.3782557 0.5448875
0.27311808 0.3948845 -0.089471705 0.05967784 0.38345775 -0.00013294983 0.06816771 -0.13767862
-0.04365187 0.0961319 0.57125384 0.07222929 -1.2382712 0.09983839 -1.4799613 0.31704202
0.26243818 1.1449344 0.15388991 0.08345944 -0.12816153 0.2168359 -0.1617179 0.46479464
0.40153718 0.13106048 -0.035142194 -0.7786201 -0.12524676 0.011506813 0.08277351 0.023093687
0.036053788 -0.091836445 0.5072109 -0.05642102 0.11784508 0.17978851 -0.1734534 0.14871547
0.009130017 0.27563706 0.16812208 0.09037604 0.05833829 -0.085481845 0.46495336 0.07779328
0.21868712 0.5447562 -0.3043633 0.011167722 0.106585264 -0.0061937314 -0.025655996 -0.88146234
-0.16557376 0.042796817 0.26819125 0.14885415 -0.004685515 -0.18805899 -0.52010775 0.082348496
0.2722231 1.0056362 -0.011904213 -0.099165335 0.014740308 -1.0721629 -1.0405632 0.7600892
-0.28227177 0.18241324 -0.6053207 0.08342311 0.30242118 0.09641502 0.0433124 -0.18931197
-1.2046936 -0.023297096 0.391296 -0.14538392 -0.17289473 -0.13018645 -0.8859358 -0.08784048
-0.020673038 0.5227641 0.10341133 -0.15238866 0.06235372 -0.92182726 -1.4832649 0.34379992
-1.0629876 0.12328901 0.2512845 0.103594206 0.437871 0.15863846 0.0765009 0.24260023
-0.0439886 -0.39391154 0.1300005 0.12503989 0.20937549 0.031729467 -1.2001789 -0.2999816
00000000: f524 383e 556e 19bf e249 a1bf a9bd 033e
00000010: 3b54 adbf f997 acbd e625 8f3d c1c4 7b3d
00000020: 0d13 4a3e 5716 123e 70c1 603d b43d 0c3c
00000030: 0cab b13e a6be 2cbf e638 85be d2a0 dbbe
00000040: cd14 f6bc d03e c4bf 6f78 15bf 4082 cebf
00000050: 4c55 4ebd 8e67 caba 7385 213d d94f 793e
00000060: 9409 94be 9b37 3d3d 9ea5 523e 3b7d 93bb
00000070: e397 a7bd 704a b2bb 158f 063c ad26 d2bc
00000080: f8d6 b8be 62e7 733d d946 b13c 488c 94bd
00000090: 295b 343e c463 a1bd 993c 87bf c3c8 423e
000000a0: 00c1 cebf 5d34 c23e 8680 2abe 00b4 c33e
000000b0: 7cf9 de3d 2817 76bf 5cee 2b3e 089d 273f
000000c0: 24e1 5e3e c587 0dbf 3747 613e 9922 f5bf
000000d0: 2182 a4be f2cb 1a3f 8bc7 94be 6793 bdbc
000000e0: 1777 f3bd 029d a03c abb5 7bbe 75f4 943f
000000f0: e123 37bf be16 bb3d 4c97 b13e c922 183e
00000100: 8fa3 853e 9fe0 00be c2cb 4b3f a7c4 cdbe
00000110: 654e a9be b9a3 8f3e 745e 773e 14cf c0be
00000120: 0f3f 6fbe ea89 35be fbec c3bc e740 523e
00000130: bb1a c03c 497a 3fbd a155 63bd b8e1 50be
00000140: c938 29bf a7b3 0a3d b547 b83e b266 84bd
00000150: 9ee9 ca3d e5b8 26be 0bbc 25bf 830b d73d
00000160: 6e94 a5be 4bed 9abd c0b5 10bd 6693 403e
00000170: 9864 4f3d 5aaf 98bf 4f66 efbf 0408 223f
00000180: 1c0e 14bf ef9d 523d 1a6c 073f d254 acbc
00000190: 19ac 813b 4725 8b3e e5c5 64bb 0439 c53a
000001a0: 73f8 523e c031 353e 8acf 1f3f a193 2a3f
000001b0: ac42 473e ef37 3b3e 901a 4bbf c517 0f3f
000001c0: 6f8f 2cbc 1ccc 073f 8528 4b3f 3edd f23d
000001d0: d6e5 023e 9eb8 133d d154 a13d 5409 c43e
000001e0: d780 903e 457d 143e be74 383e 9e6e adbe
000001f0: 8e71 14be 229d bcbc fbf5 c73d fe73 b5bf
00000200: bc0f efbe 8b7d a43c 0f5c c93e 7b46 c6bd
00000210: 7264 42bf 4b06 40be 44d3 57bf 58e8 b93e
00000220: 82f8 8dbf a6bb e63e 7781 8a3d 62ec 47be
00000230: dd3b 9fbc 792a c7bf bbaa c1be bf7d 0b3f
00000240: 22d6 8b3e 4d2e ca3e f13c b7bd c070 743d
00000250: 9354 c43e 7368 0bb9 839b 8b3d a0fb 0cbe
00000260: 4ecc 32bd cde0 c43d b13d 123f f3ec 933d
00000270: ac7f 9ebf 1278 cc3d 5f6f bdbf 5553 a23e
00000280: 4c5e 863e 368d 923f 5195 1d3e c8ec aa3d
00000290: c73c 03be 3b0a 5e3e 6199 25be 90f9 ed3e
000002a0: 4896 cd3e b834 063e 43f1 0fbd a653 47bf
000002b0: b040 00be 1287 3c3c 2885 a93d f92e bd3c
000002c0: 23ad 133d bf14 bcbd 93d8 013f ba19 67bd
000002d0: c358 f13d 7b1a 383e c59d 31be de48 183e
000002e0: 1196 153c 4d20 8d3e 3228 2c3e 1317 b93d
000002f0: 21f4 6e3d 1b11 afbd 5e0e ee3e 1552 9f3d
00000300: 84ef 5f3e 2475 0b3f 82d5 9bbe d2f8 363c
00000310: 6049 da3d c9f4 cabb 862c d2bc 84a7 61bf
00000320: 2b8c 29be b74b 2f3d 5d50 893e 396d 183e
00000330: f388 99bb 8992 40be c825 05bf 54a6 a83d
00000340: d360 8b3e b0b8 803f e309 43bc 3217 cbbd
00000350: 5581 713c a23c 89bf 2d31 85bf 3595 423f
00000360: ed85 90be 89ca 3a3e 4cf6 1abf bcd9 aa3d
00000370: f3d6 9a3e 3d75 c53d 5868 313d ffda 41be
00000380: 6633 9abf 8dd9 bebc f357 c83e 86df 14be
00000390: 510b 31be 994f 05be b0cc 62bf b6e5 b3bd
000003a0: 815a a9bc ded3 053f 52c9 d33d c60b 1cbe
000003b0: 9d66 7f3d dffc 6bbf a0db bdbf 8b06 b03e
000003c0: fa0f 88bf f37e fc3d 5da8 803e 3329 d43d
000003d0: a130 e03e 1f72 223e 81ac 9c3d 326c 783e
000003e0: 642d 34bd c6ae c9be da1e 053e 750a 003e
000003f0: 8766 563e c2f6 013d 769f 99bf 3097 99be

bias f4 [24]
0.05768591 0.045322835 -0.16286267 0.06253463 -0.1382182 0.08216059 -0.089099765 -0.19332585
0.03685062 0.054220125 -0.05712543 0.057625625 -0.16377394 -0.029518988 -0.05247356 0.049955003
-0.042611446 0.049369942 -0.156836 0.07776539 0.05155358 0.09563097 0.05574905 0.0855772
00000000: 1048 6c3d 70a4 393d 79c5 26be 2812 803d
00000010: 1289 0dbe d043 a83d f079 b6bd 36f7 45be
00000020: adf0 163d ec15 5e3d 5bfc 69bd d908 6c3d
00000030: 5bb4 27be ced1 f1bc 84ee 56bd 9e9d 4c3d
00000040: 5789 2ebd 2338 4a3d 9e99 20be 7643 9f3d
00000050: d929 533d 2cda c33d 1e59 643d 1943 af3d

weight f4 [24, 24]
0.30662015 -0.6103649 -0.22649626 -0.26913592 0.1176869 -0.9685804 -0.78084505 -0.5882161
0.08913578 -0.052693263 -0.082115985 0.37315744 0.7047371 -1.0009233 -0.75650907 -0.25908807
-0.91070867 0.15255983 0.0664428 0.28674078 -0.6815085 -0.9313279 0.45888886 -0.2804676
-0.56481737 0.17139745 0.06275447 0.52686226 -0.022697104 0.8256214 0.49275333 0.51460654
0.60117203 0.77101845 0.36734018 -0.62095743 -0.42092633 0.47598815 0.9559362 0.24689062
0.596981 0.026146444 0.06505178 -0.3440223 0.47434673 0.36439663 -0.65006 0.10353624
4.92747e-40 -4.94758e-40 4.93769e-40 4.94117e-40 4.94604e-40 4.9422e-40 4.92219e-40 -4.96245e-40
4.91931e-40 -4.92013e-40 4.92426e-40 4.92732e-40 -4.9517e-40 4.92804e-40 -4.94402e-40 -4.95171e-40
4.91559e-40 4.92101e-40 -1.0824536e-38 -4.94015e-40 4.91675e-40 -4.91526e-40 -4.9528e-40 4.94499e-40
0.20802309 -0.41930482 -1.1528974 -0.4431788 -1.3157687 -0.67094535 -0.28598097 0.03820499
-0.5548774 -0.59226286 -0.4244985 0.024381412 1.116254 -0.56018686 -0.5548028 -0.28482917
-0.17990841 -0.6958959 -1.5602614 0.70070827 -0.55935466 -0.4240434 0.6770984 -0.12102014
0.30464327 -0.6213357 -0.21174659 -0.21738501 0.004055032 -1.0554699 -0.72414565 -0.59961426
0.08061825 -0.07692696 -0.1317233 0.48493445 0.7651233 -1.0256575 -0.78835523 -0.19151738
-0.9779525 0.15055011 0.039133195 0.4871207 -0.66659856 -0.85388035 0.7213527 -0.20581564
0.27820247 -0.19564286 0.7428265 -0.32250568 0.094002865 -0.56827027 -0.6557649 -0.5447505
-0.69585043 -0.59241396 -0.20719518 0.21955577 0.34784576 -0.63959056 -0.27934605 -0.035563555
-0.94782114 0.014299528 0.03985985 0.053181507 -0.19730659 -0.10585435 -0.2921399 -0.113297194
-0.574809 0.088433936 0.09111128 0.25031513 -0.0076686144 0.63019484 0.4330222 0.5625735
0.5991018 0.69539535 0.26132008 -0.61900336 -0.33471096 0.38705155 1.0301611 0.35709926
0.5409119 -0.01677813 0.052408114 -0.2709058 0.5314301 0.1517482 -0.603326 0.19194572
0.37351662 -0.47213614 -1.2113448 -0.39040956 -0.96655804 -0.53786993 0.005564106 -0.060510367
-0.54761076 -0.51642174 -0.5423667 0.007347938 1.0297815 -0.2230604 -0.4391854 -0.3765358
0.10663816 -0.6962833 -1.4695997 0.6728224 -0.53017545 -0.55581295 0.6458344 -0.16908523
0.39517608 -0.39598364 -1.2674152 -0.46270162 -1.1208607 -0.6741063 -0.06463003 -0.1363408
-0.5203528 -0.48179215 -0.40723583 -0.019767549 1.1478416 -0.2361259 -0.532966 -0.33379596
0.016568288 -0.65591425 -1.5118967 0.61038023 -0.39077398 -0.351054 0.953217 -0.060423914
0.18637654 -0.3851789 -1.1505896 -0.58234125 -1.0440645 -0.5663999 -0.37141436 -0.15051757
-0.4177359 -0.7563192 -0.5394429 0.21231128 0.897775 -0.83011615 -0.39521715 -0.48501605
-0.4947722 -0.7009583 -1.2696642 0.6522558 -0.5315717 -0.6252173 0.3006459 -0.24821801
0.034573976 -0.44087186 -1.2646059 -0.3983313 -1.278966 -0.58619964 -0.13789523 0.027910136
-0.6840116 -0.5659265 -0.411183 0.17884818 1.0547593 -0.5522202 -0.5038969 -0.32613632
00000000: 51fd 9c3e e040 1cbf a3ee 67be 2fcc 89be
00000010: d405 f13d e3f4 77bf 76e5 47bf 5595 16bf
00000020: d28c b63d e4d4 57bd 6d2c a8bd 7e0e bf3e
00000030: a769 343f 411e 80bf 94aa 41bf 31a7 84be
00000040: 3424 69bf a538 1c3e 2a13 883d b0cf 923e
00000050: 5777 2ebf 816b 6ebf 7bf3 ea3e 7399 8fbe
00000060: df97 10bf d082 2f3e 6a85 803d 72e0 063f
00000070: 47ef b9bc ed5b 533f 2a4a fc3e 41bd 033f
00000080: 69e6 193f 7761 453f 0314 bc3e 11f7 1ebf
00000090: a883 d7be b8b4 f33e 3cb8 743f e5d0 7c3e
000000a0: bfd3 183f 1131 d63c de39 853d b123 b0be
000000b0: 93dd f23e 3292 ba3e 556a 26bf cf0a d43d
000000c0: 945d 0500 2f63 0580 6d60 0500 6661 0500
000000d0: c162 0500 af61 0500 1b5c 0500 5467 0580
000000e0: 4e5b 0500 885b 0580 af5c 0500 895d 0500
000000f0: 5564 0580 bd5d 0500 3162 0580 5664 0580
00000100: 445a 0500 c75b 0500 67de 7580 1d61 0580
00000110: 975a 0500 2d5a 0580 a464 0580 7662 0500
00000120: 0104 553e 1faf d6be 2492 93bf 55e8 e2be
00000130: 1c6b a8bf 13c3 2bbf 196c 92be d67c 1c3d
00000140: 720c 0ebf 8a9e 17bf de57 d9be 87bb c73c
00000150: 69e1 8e3f 6868 0fbf 8e07 0ebf 21d5 91be
00000160: e939 38be 3c26 32bf a5b6 c7bf 9e61 333f
00000170: de31 0fbf 371c d9be 5256 2d3f 68d9 f7bd
00000180: 34fa 9b3e db0f 1fbf 19d4 58be 2d9a 5ebe
00000190: 13e0 843b a319 87bf 9c61 39bf 5280 19bf
000001a0: 2e1b a53d e28b 9dbd 79e2 06be 5449 f83e
000001b0: 1fdf 433f bf48 83bf a6d1 49bf 221d 44be
000001c0: 185b 7abf cf29 1a3e 214a 203d e267 f93e
000001d0: 34a6 2abf e797 5abf 92aa 383f 56c1 52be
000001e0: 8e70 8e3e 9a56 48be e129 3e3f 771f a5be
000001f0: 9384 c03d 297a 11bf 35e0 27bf c574 0bbf
00000200: 4123 32bf 71a8 17bf f92a 54be 3ad3 603e
00000210: d718 b23e 35bc 23bf 7206 8fbe 17ab 11bd
00000220: 68a4 72bf 9148 6a3c 1544 233d dad4 593d
00000230: bd0a 4abe 2aca d8bd 5c93 95be 5c08 e8bd
00000240: af26 13bf da1c b53d 8d98 ba3d 4e29 803e
00000250: 0049 fbbb 7354 213f 16b5 dd3e d104 103f
00000260: bc5e 193f 6e05 323f bfcb 853e 0177 1ebf
00000270: 3c5f abbe 9f2b c63e 52dc 833f b7d5 b63e
00000280: 3479 0a3f 4a72 89bc e4a9 563d 2ab4 8abe
00000290: ce0b 083f e163 1b3e 9373 1abf 6b8d 443e
000002a0: 923d bf3e d4bb f1be 590d 9bbf c3e3 c7be
000002b0: 5970 77bf d8b1 09bf 1b53 b63b b8d9 77bd
000002c0: 3830 0cbf 3734 04bf 8bd8 0abf f9c6 f03b
000002d0: e1cf 833f f269 64be e9dc e0be 4dc9 c0be
000002e0: 1c65 da3d 9f3f 32bf d81b bcbf 173e 2c3f
000002f0: 94b9 07bf c249 0ebf 6755 253f ae24 2dbe
00000300: 8554 ca3e 5ebe cabe a93a a2bf 3ae7 ecbe
00000310: 5d78 8fbf 3b92 2cbf c05c 84bd ec9c 0bbe
00000320: d735 05bf 76ad f6be 3781 d0be 8eef a1bc
00000330: 79ec 923f fdca 71be 7670 08bf 4ee7 aabe
00000340: 38ba 873c ffe9 27bf d585 c1bf e141 1c3f
00000350: 8713 c8be 5abd b3be 0806 743f 117f 77bd
00000360: 7ed9 3e3e 2b36 c5be 8546 93bf 5114 15bf
00000370: e8a3 85bf 95ff 10bf 062a bebe 4721 1abe
00000380: 7be1 d5be 239e 41bf ee18 0abf 2168 593e
00000390: 95d4 653f 7e82 54bf e759 cabe 0654 f8be
000003a0: c852 fdbe 0172 33bf 5b84 a2bf 3cfa 263f
000003b0: 1515 08bf 3e0e 20bf 42ee 993e dd2c 7ebe
000003c0: 719d 0d3d f5b9 e1be 9bde a1bf 15f2 cbbe
000003d0: 28b5 a3bf 2e11 16bf 6834 0dbe cca3 e43c
000003e0: 621b 2fbf 8fe0 10bf 9486 d2be fa23 373e
000003f0: 5a02 873f 4e5e 0dbf 63ff 00bf 57fb a6be

bias f4 [24]
0.16013125 0.02814918 -1.4466887e-09 0.28037572 0.18401267 -0.32943594 0.04124833 0.28973034
0.26005915 0.30891052 0.30183342 0.0393832 0.010174835 0.33338955 0.058238093 0.06804682
0.065886654 0.19096069 0.18745495 0.19174112 -9.943369e-08 -0.0732557 0.032098353 0.053308003
00000000: 72f9 233e 1c99 e63c d5d4 c6b0 688d 8f3e
00000010: d16d 3c3e d4ab a8be 02f4 283d 8957 943e
00000020: 7926 853e 8529 9e3e e989 9a3e 4750 213d
00000030: 5ab4 263c 09b2 aa3e 118b 6e3d 225c 8b3d
00000040: 95ef 863d 338b 433e 31f4 3f3e c957 443e
00000050: 4088 d5b3 1607 96bd 9079 033d 7e59 5a3d

weight f4 [1, 24]
0.9832556 -0.7417852 7.125714e-07 1.3253014 0.93028057 1.3840272 -0.8468502 1.238349
1.3025819 1.4564006 1.2560858 -0.71286577 -0.7153293 1.6392224 -0.7917866 -0.8311689
-0.775531 0.8849777 0.91743076 0.83314586 4.35406e-05 -0.038579565 -0.75150037 -0.8074628
00000000: a4b6 7b3f a3e5 3dbf 8947 3f35 7aa3 a93f
00000010: de26 6e3f ce27 b13f 2dcb 58bf 3882 9e3f
00000020: 01bb a63f 566b ba3f 6bc7 a03f 5f7e 36bf
00000030: d21f 37bf 0ad2 d13f 87b2 4abf 7cc7 54bf
00000040: 3389 46bf e68d 623f bedc 6a3f 0c49 553f
00000050: 5d9f 3638 9b05 1ebd 5462 40bf e2b5 4ebf
