model.pt (torch, 14748 bytes, 9 tensors)

weight f4 [24, 7]
0	0xbefe2752	-0.49639374
1	0x3ec6681e	0.3875131
2	0xbef5a4cf	-0.479773
3	0x3ea405a5	0.32035556
4	0x3da1a575	0.078928865
5	0x3e3d9fe9	0.18518032
6	0x3dbb1de4	0.091365606
7	0x3dbd98cc	0.09257659
8	0xbe74fd53	-0.2392476
9	0xbf510998	-0.81655264
10	0x3e951ad4	0.2912203
11	0x3f803e02	1.0018923
12	0x3da60476	0.081063196
13	0xbe6e87e8	-0.23294032
14	0xbe4209a5	-0.18948992
15	0x3f22dbd0	0.6361666
16	0x3ec9615a	0.39332086
17	0xbe33896d	-0.17532893
18	0xbf0dc2a8	-0.55375147
19	0xbf315480	-0.6926956
20	0x3dc42362	0.09577061
21	0x3e4ee6fc	0.20205301
22	0xbf047fc1	-0.51757437
23	0x3ee72d49	0.45151737
24	0x3d14f8c0	0.03637004
25	0xbf0df2c1	-0.5544854
26	0x3da627c9	0.08113057
27	0x3e712e0a	0.23552719
28	0xbc4e8b5d	-0.012606469
29	0x3e52efe7	0.20599328
30	0x3e11de18	0.14244878
31	0x3f424d77	0.7589945
32	0x3d40c063	0.047058474
33	0xbf5d8f73	-0.8654701
34	0x3d83bc33	0.064323805
35	0x3dbc98ef	0.09208857
36	0xbd6e02c5	-0.05810811
37	0xbddc1248	-0.10745674
38	0xbe8b6aa9	-0.27229813
39	0x3e382a52	0.17984894
40	0xbbd4206b	-0.006473591
41	0x3e6b60e4	0.2298618
42	0x3eaa605d	0.33276644
43	0xbe87acad	-0.2649893
44	0xbf417846	-0.7557415
45	0xbd949676	-0.07255261
46	0xbf32c236	-0.6982759
47	0x3edbe4a2	0.4294787
48	0xbc918b0e	-0.017766502
49	0xbc52cf73	-0.012866843
50	0x3e7b021e	0.24512526
51	0x3e81657e	0.25272745
52	0xbecddd33	-0.40207824
53	0x3f822a01	1.0169069
54	0xbdc07819	-0.09397907
55	0xbd5cbc38	-0.053890437
56	0x3ee3419e	0.44386
57	0x3eac15d4	0.33610404
58	0xbe911d7a	-0.283428
59	0x3dad35b0	0.08457506
60	0xbf1fae86	-0.62375677
61	0xbd7f6db9	-0.0623605
62	0xbda8ca23	-0.082416795
63	0xbf025f01	-0.50926214
64	0x3ec286e7	0.37993547
65	0x3e26ec06	0.16300973
66	0xbeff1e48	-0.4982779
67	0x3e9fbb51	0.311976
68	0x3e6ec340	0.2331667
69	0xbe8ec9bf	-0.27888295
70	0x3d5434bb	0.0518081
71	0xbde7bc1f	-0.11315178
72	0xbe80d612	-0.25163323
73	0xbe2589d9	-0.16165866
74	0xbe3365a8	-0.17519248
75	0x3f004612	0.5010692
76	0x3ef21ddb	0.47288403
77	0x3d4ad4ff	0.049519535
78	0xbf1135d3	-0.56722754
79	0xbe3c6b0d	-0.18400212
80	0xbe4e1592	-0.20125416
81	0xbe64110d	-0.2227213
82	0x3edfe1bc	0.4372691
83	0xbea24a5e	-0.31697363
84	0xbe795195	-0.24347527
85	0x3f261a91	0.6488429
86	0x3f1d044f	0.613347
87	0xbdf9633b	-0.1217713
88	0xbe5eaddd	-0.21746011
89	0xbee54014	-0.4477545
90	0x3dd2df84	0.102965385
91	0xbdc06b10	-0.093954206
92	0x3d61622e	0.055025272
93	0xbf73eae3	-0.95280284
94	0x3dc03576	0.09385197
95	0x3eb33a2f	0.35005328
96	0xbe7c8e79	-0.24663724
97	0xbebcb37d	-0.3685569
98	0x3e89c71b	0.26909718
99	0x3dd3fe75	0.10351268
100	0xbe9ef9ea	-0.31050044
101	0x3e872561	0.26395705
102	0x3f4f5b0d	0.8099831
103	0xbed2b91d	-0.41156855
104	0xbe1bc3dd	-0.15211435
105	0xbdf3f4fa	-0.1191196
106	0x3ec50105	0.3847734
107	0x3ee5da5f	0.44893166
108	0xbf00684d	-0.5015915
109	0x3e878248	0.26466584
110	0xbc3db536	-0.011578849
111	0xbef6ed2e	-0.4822783
112	0xbedba9db	-0.42903027
113	0x3e3cddd5	0.18443997
114	0xbc251f4c	-0.010078263
115	0x3e8120f6	0.2522046
116	0xbe6f2e9c	-0.23357624
117	0xbed4b240	-0.41542244
118	0xbed10840	-0.40826607
119	0x3eb0da71	0.34541658
120	0xbf51de7b	-0.81980103
121	0xbf1bdb16	-0.60881174
122	0xbe939a40	-0.2882862
123	0x3d972efd	0.07382009
124	0xbee378f4	-0.44428217
125	0x3d294f5f	0.04133546
126	0x3e58fad5	0.21189435
127	0x3f0124e4	0.50446916
128	0x3d9e03f3	0.07715597
129	0x3d04bdcf	0.032407578
130	0x3f6a4e68	0.9152589
131	0xbeca5b08	-0.39522576
132	0x3ed6ae75	0.41929975
133	0xbf208d63	-0.6271574
134	0x3e9ed4b5	0.31021658
135	0xbe07863b	-0.13234799
136	0xbe8ff0ed	-0.281135
137	0xbdf19977	-0.11796849
138	0x3c300c8d	0.01074518
139	0x3d62b5b1	0.055349056
140	0x3f1dc51e	0.616289
141	0xbf39d6b5	-0.7259324
142	0xbc8f1669	-0.01746674
143	0x3ef705d9	0.4824665
144	0xbe42da65	-0.19028623
145	0x3eaaf045	0.33386436
146	0xbe58fbd2	-0.21189812
147	0xbeb916aa	-0.36150104
148	0xbe1037c4	-0.14083773
149	0xbe8cbdab	-0.27488455
150	0x3ece2056	0.40259045
151	0x3f091390	0.53545475
152	0xbecbd7fb	-0.39813218
153	0x3efde4b3	0.49588546
154	0xbe9d9ef2	-0.30785328
155	0x3f2dac47	0.67841
156	0x3f10287e	0.56311786
157	0x3e61e496	0.22059855
158	0xbe7ce8d2	-0.24698189
159	0x3e31089b	0.17288439
160	0xbebe4837	-0.3716447
161	0x3eeeed51	0.46665433
162	0xbf913adb	-1.1346086
163	0x3e081b06	0.13291559
164	0x3de83c2b	0.11339601
165	0xbd4a63e0	-0.049411654
166	0xbe9fdd58	-0.3122356
167	0x3dbc2498	0.09186667

bias f4 [24]
0	0x3ec44d42	0.38340193
1	0xbea1e8b2	-0.31622845
2	0x3d577249	0.052599225
3	0xbd5bd3e7	-0.053668883
4	0x3d8d8dcd	0.06911812
5	0x3ebd0294	0.3691603
6	0xbed1d368	-0.40981603
7	0xbed71a3e	-0.4201221
8	0x3e3dd5c1	0.18538572
9	0x3e575aa9	0.21030678
10	0xbe0d5a44	-0.13803965
11	0x3e682192	0.22669056
12	0x3da8e399	0.08246536
13	0x3e673290	0.22577882
14	0x3eb48ad1	0.3526216
15	0xbe4cc51b	-0.19997065
16	0x3ea7f76a	0.3280595
17	0xbf29cbe0	-0.66326714
18	0x3d437a34	0.047723964
19	0x3e0452d6	0.12922224
20	0xbea80212	-0.3281408
21	0xbd34dc30	-0.0441553
22	0xbe69bf24	-0.2282682
23	0xbd81bbc1	-0.06334639

weight f4 [24, 24]
0	0xbea33d57	-0.31882736
1	0x3e9f8a0c	0.3116001
2	0xbf0b7d2b	-0.54487866
3	0x3eb1b988	0.34711862
4	0x3dda03e6	0.10645275
5	0xbe2ba2ab	-0.16761272
6	0x3e8bbb5d	0.27291384
7	0x3f1e278c	0.61779094
8	0xbee44e5f	-0.44591042
9	0xbd8779a7	-0.06615
10	0xbe7812c3	-0.24225907
11	0x3ec71fd9	0.38891485
12	0xbeeaa038	-0.45825362
13	0x3ea864a8	0.32889295
14	0xbe9fcb9a	-0.31210023
15	0x3d950124	0.07275608
16	0xbe71acd2	-0.23601082
17	0x3d290223	0.041261803
18	0xbf4d6886	-0.80237615
19	0x3df804de	0.12110303
20	0x3e842d8e	0.25816005
21	0xbe31022d	-0.17285986
22	0xbec2d351	-0.38051847
23	0x3ea55a54	0.32295477
24	0xbe0618d9	-0.13095416
25	0x3f2c7ddc	0.67379546
26	0xbea61e1c	-0.32444847
27	0xbe92a49b	-0.2864121
28	0x3e808d9d	0.25108042
29	0xbe3cb7ea	-0.18429533
30	0x3ed82ca4	0.42221558
31	0x3d736bca	0.059428968
32	0xbf4334f7	-0.7625269
33	0x3e82b921	0.25531867
34	0xbea8c1ef	-0.3296046
35	0xbe06ecc4	-0.13176256
36	0x3f33a9d9	0.7018104
37	0xbed1a87a	-0.4094885
38	0xbde13817	-0.109970264
39	0xbe8794bb	-0.2648066
40	0x3eca3fcf	0.39501807
41	0x3cdd6146	0.027023923
42	0x3ef24883	0.47320947
43	0x3ce4cf67	0.027930928
44	0xbe932be0	-0.2874441
45	0x3cef8c90	0.02924183
46	0x3ee6081f	0.4492807
47	0xbd2f0f0b	-0.042738955
48	0x3ef3bbcf	0.47604224
49	0xbef865fe	-0.48515314
50	0x3ba74742	0.00510493
51	0xbef3107f	-0.47473523
52	0xbe902608	-0.28154016
53	0x3d901085	0.07034401
54	0xbf6cb136	-0.924579
55	0xbe965b52	-0.29366547
56	0xbd67261b	-0.056432825
57	0xbe26aa19	-0.16275825
58	0x3e0e0522	0.13869146
59	0x3d4883e5	0.04895391
60	0xbd9fac95	-0.07796589
61	0xbe2114de	-0.15730616
62	0xbecb2d9a	-0.3968323
63	0x3e9c68d3	0.30548725
64	0x3e482f6c	0.1954934
65	0x3ea7a6de	0.32744497
66	0xbd724a86	-0.059153102
67	0x3e22f5ea	0.15914121
68	0xbf568aa7	-0.83805317
69	0xbec0f948	-0.37690187
70	0x3e06264d	0.13100548
71	0xbdbbacd1	-0.091638215
72	0x3df4032b	0.11914667
73	0x3e1a2495	0.15053017
74	0xbd47bf35	-0.048766334
75	0xbd65a7b3	-0.056068134
76	0xbf334240	-0.70022964
77	0x3e3e5490	0.18586946
78	0xbd7ad3de	-0.06123721
79	0xbe95e9d4	-0.2927996
80	0xbc9ef7f9	-0.019405352
81	0xbf933cae	-1.1502893
82	0x3ef82e9c	0.4847306
83	0xbc00e585	-0.007867222
84	0xbdecf10a	-0.11569412
85	0xbee1b95c	-0.4408673
86	0xbea75f7b	-0.32690033
87	0xbda492e4	-0.0803583
88	0xbeecefde	-0.46276754
89	0x3d0c8b8e	0.034312777
90	0x3f051184	0.5197985
91	0x3e4f136c	0.20222253
92	0xbe83cee9	-0.25743797
93	0x3ba62659	0.0050704894
94	0x3d14a8f9	0.036293957
95	0x3d600a40	0.054697275
96	0xbf32054b	-0.69539326
97	0x3dcf15fe	0.101116166
98	0x3efb6be6	0.49105757
99	0x3ccc1319	0.02491145
100	0x3e7e9ae7	0.24863778
101	0xbd668ee4	-0.056288615
102	0xbe10eca8	-0.14152777
103	0xbe411c02	-0.1885834
104	0x3e3937e6	0.1808773
105	0x3d76b467	0.06023064
106	0x3ea3e366	0.3200943
107	0xbd93e969	-0.07222254
108	0x3e9d6e53	0.30748233
109	0xbe8ba68f	-0.27275512
110	0x3db3d7ab	0.0878137
111	0x3e880d54	0.2657267
112	0xbe1ec3d5	-0.15504391
113	0xbea92b1d	-0.33040705
114	0xbeda2a4d	-0.42610398
115	0x3d5edf02	0.054411896
116	0x3eedbe07	0.46434042
117	0xbf0ec205	-0.557648
118	0x3e5c2d5d	0.2150168
119	0xbf51cb0a	-0.8195044
120	0x3e549010	0.2075808
121	0x3f1ffa07	0.62490886
122	0x3f052c72	0.52020943
123	0xbe1e5c1b	-0.15464823
124	0x3e5a7dc2	0.21337035
125	0xbe804e0a	-0.2505954
126	0x3e2c3efc	0.16820902
127	0x3eb0d965	0.3454086
128	0xbcecdd59	-0.02891414
129	0xbb265d09	-0.0025385043
130	0xbe8ac75c	-0.27105224
131	0x3e11f6da	0.14254323
132	0xbca8ebad	-0.020620191
133	0xbd83a9c6	-0.06428866
134	0xbf06261b	-0.52401894
135	0x3d0f5d24	0.035000935
136	0x3d8cab43	0.06868603
137	0xbefc4dbe	-0.49278063
138	0xbe127c8c	-0.14305323
139	0xbd6f9bc0	-0.058498144
140	0x3ddb99a2	0.107226625
141	0x3f0ce673	0.5503914
142	0xbdf6b9da	-0.12047167
143	0xbd191dda	-0.037381984
144	0xbea66b42	-0.32503706
145	0xbd14ed52	-0.03635914
146	0x3eeb9470	0.46011686
147	0x3dafbd51	0.08581031
148	0xbd977515	-0.073953785
149	0xbdb639b3	-0.08897724
150	0xbed558b1	-0.4166923
151	0x3f8098eb	1.0046667
152	0xbdb62eff	-0.088956825
153	0x3e8811a1	0.2657595
154	0xbe07704d	-0.13226433
155	0xbc65e94b	-0.014032672
156	0x3edf6522	0.43631846
157	0xbe1b6763	-0.15176158
158	0x3e64ddd2	0.22350243
159	0x3e67c66f	0.2263429
160	0xbe93217e	-0.2873649
161	0xbee92295	-0.45534196
162	0xbc1ae3a9	-0.0094536925
163	0xbe1f342e	-0.15547249
164	0x3f15b1b8	0.584743
165	0xbd6771fd	-0.056505192
166	0x3d4423f6	0.047885858
167	0xbea1cca1	-0.31601432
168	0xbdae7550	-0.08518469
169	0x3d641059	0.055679653
170	0x3ee6362f	0.44963214
171	0xbd76ad6a	-0.060223974
172	0xbe370ea1	-0.17876674
173	0xb9aaddc7	-0.00032590164
174	0xbe629b2b	-0.22129504
175	0x3f22c15e	0.63576305
176	0xbd0e9bfb	-0.034816723
177	0x3cb11403	0.021615988
178	0xbf06a818	-0.5260024
179	0xbe0cfa72	-0.13767412
180	0x3e5807bc	0.210967
181	0xbecdad4f	-0.40171286
182	0x3e085eb9	0.13317384
183	0x3bbb830d	0.0057224096
184	0x3ea70c96	0.3262679
185	0xbf01a9f8	-0.50649977
186	0x3e6920e2	0.2276645
187	0x3ea3822e	0.31935257
188	0xbe3a187b	-0.18173401
189	0x3ea4b909	0.3217242
190	0x3ec02379	0.37527063
191	0xbf02db8c	-0.5111625
192	0x3eb11255	0.345843
193	0x3e6746a4	0.22585541
194	0xbdbe899a	-0.09303589
195	0x3de289ad	0.11061416
196	0xbed44fc6	-0.41467112
197	0xbeade635	-0.33964697
198	0x3f066970	0.52504635
199	0x3f837551	1.0270177
200	0xbd353393	-0.044238638
201	0xbe6ae206	-0.22937784
202	0x3cfbf0f9	0.030754553
203	0xbf0bb4df	-0.5457286
204	0x3ed10cf6	0.408302
205	0xbd8c37f6	-0.06846611
206	0xbe4df3ad	-0.20112486
207	0xbe5b743c	-0.21431059
208	0x3e8faa24	0.28059494
209	0x3efb2eda	0.49059182
210	0x3e527e9b	0.20556109
211	0xbeea55c3	-0.45768556
212	0xbeb277f5	-0.34857145
213	0x3d8da583	0.069163345
214	0x3ed08acd	0.40730897
215	0xbe984d05	-0.2974626
216	0xbe1a4b52	-0.15067795
217	0xbea46678	-0.32109427
218	0x3eba2951	0.36359647
219	0xbd735ac5	-0.059412736
220	0x3ed1c4cc	0.40970457
221	0xbdcdba4a	-0.100452974
222	0xbd9d6e4f	-0.07687055
223	0x3ebf036e	0.37307304
224	0x3ed309c8	0.412184
225	0xbea61483	-0.32437524
226	0xbed91e2b	-0.4240583
227	0xbe82fbd3	-0.25582752
228	0x3ea63302	0.3246079
229	0xbf4f2614	-0.8091748
230	0xbd333e29	-0.043760452
231	0x3f1a4f1b	0.60276955
232	0xbe19009e	-0.14941642
233	0xbe60d8eb	-0.21957748
234	0xbe5662d5	-0.20936139
235	0xbe37e9b7	-0.17960249
236	0xbf3bc3e5	-0.73345786
237	0x3e9c3116	0.305062
238	0x3ed29496	0.41128987
239	0xbeece510	-0.4626851
240	0xbed8cb9b	-0.4234284
241	0x3f1062b6	0.5640062
242	0x3ea9573c	0.33074367
243	0xbeb5b327	-0.35488245
244	0x3d640c1f	0.055675622
245	0x3d115e16	0.035490118
246	0xbc56a0d1	-0.013099865
247	0xbba67838	-0.005080249
248	0xbe89e3f8	-0.2693174
249	0x3e138d1f	0.14409302
250	0x3d5f8e49	0.054579053
251	0xbd93dff6	-0.072204515
252	0x3ec6f7f4	0.38861048
253	0xbdefe1dc	-0.11713001
254	0x39d504c2	0.0004063007
255	0x3cbebdaf	0.023283808

bias f4 [24]
0	0xbcccb9ab	-0.024990877
1	0x3e17c366	0.14820632
2	0x3cfe63c1	0.031053426
3	0x3cea2f57	0.028587027
4	0xbe609c1a	-0.21934548
5	0xbe378e7a	-0.17925444
6	0x3e194a1d	0.14969678
7	0xbe33e49b	-0.17567675
8	0xbd285e24	-0.041105404
9	0x3884379e	6.30461e-05
10	0x3d4f3f3e	0.05059742
11	0xbd32e96f	-0.04367965
12	0xbc88cbfa	-0.016698826
13	0x3bc210be	0.005922406
14	0xbe031195	-0.12799676
15	0x3dac4e3d	0.0841336
16	0xbd86e601	-0.065868385
17	0x3e285409	0.16438307
18	0xbe902cf9	-0.2815931
19	0x3eb9d4ef	0.36295268
20	0x3dfd8c4f	0.12380277
21	0xbe2e0993	-0.1699584
22	0x3df2f6cc	0.11863479
23	0xbd97abba	-0.07405801

weight f4 [24, 24]
0	0x3ec35e10	0.38157701
1	0x3e2a775f	0.16647099
2	0xbe4e0e2b	-0.20122592
3	0xbeb6062b	-0.3555158
4	0x3f43b99d	0.764551
5	0xbe59de77	-0.2127627
6	0x3db5adfa	0.08871074
7	0xbe4a9af4	-0.19785672
8	0x3d216f1d	0.039412607
9	0x3f33aa26	0.701815
10	0x3f03f6ec	0.5154865
11	0x3c57af2c	0.013164323
12	0xbe18600d	-0.1488039
13	0x3de892c4	0.11356118
14	0x3e2ad302	0.16682056
15	0x3e190d07	0.14946376
16	0x3dd1b16f	0.10238921
17	0x3ebf8dea	0.3741296
18	0xbdb62dff	-0.08895492
19	0xbdcfb241	-0.10141421
20	0x3e92eb19	0.2869499
21	0xbbab11d3	-0.0052206307
22	0xbf033c96	-0.5126432
23	0x3e00818f	0.12549423
24	0x3f0a16d6	0.53941095
25	0x3bc95aa8	0.0061448403
26	0xbf1287f1	-0.5723868
27	0x3e19f10e	0.15033361
28	0x3f47f820	0.78112984
29	0x3e1101f2	0.14160898
30	0xbe88c434	-0.2671219
31	0x3c349080	0.01102078
32	0x3da7b2da	0.0818841
33	0x3f9702db	1.1797746
34	0x3eed58b9	0.46356753
35	0x3e20fefe	0.15722272
36	0x3d9bb269	0.076023884
37	0x3ca2d3e8	0.019876435
38	0xbe76c40a	-0.2409822
39	0x3eb63a47	0.35591337
40	0x3ef6d312	0.4820791
41	0x3e1767ce	0.14785692
42	0xbf160edb	-0.5861642
43	0xbf694743	-0.9112436
44	0x3e969cbd	0.29416457
45	0x3db0e8c3	0.08638146
46	0x3df3c89f	0.119035
47	0xbf2bba49	-0.67081124
48	0x3f41bbaf	0.7567701
49	0x3eb8f3d3	0.36123523
50	0xbef1dbca	-0.47237998
51	0xbf02ad4a	-0.5104567
52	0x3f37b8f3	0.71766585
53	0x3d2d36d4	0.042288616
54	0x3db2376b	0.087019764
55	0x3ccf0769	0.025272088
56	0xbddd064d	-0.107922174
57	0x3f40b1e7	0.7527146
58	0x3e8b99f4	0.27265894
59	0xbd37a06a	-0.044830717
60	0x3c5db93a	0.013532931
61	0x3cbd9d77	0.023146374
62	0xbd1fa06e	-0.038971357
63	0x3e4db7c5	0.20089634
64	0x3e81744d	0.25284043
65	0x3f0a7ab1	0.5409346
66	0xbe6906c4	-0.22756487
67	0xbca04044	-0.019561894
68	0x3e3b73a0	0.18305826
69	0xbce68421	-0.028139176
70	0xbeb7cca3	-0.35898313
71	0x3e897365	0.26845852
72	0xbf675194	-0.90358853
73	0xbf0f8d3e	-0.56074893
74	0x3eb0b39c	0.3451203
75	0x3e045863	0.12924342
76	0xbcb6f2ac	-0.022332512
77	0xbd641683	-0.05568553
78	0xbf4166ca	-0.7554747
79	0xbe9a974d	-0.30193558
80	0x3de55cbd	0.11199329
81	0x3e327613	0.17427854
82	0xbf8119f4	-1.0086045
83	0xbdc64c84	-0.09682563
84	0xbf06f83d	-0.5272253
85	0xbf002fda	-0.50073016
86	0xbf277617	-0.65414566
87	0xbe8a4985	-0.27009216
88	0xbf20aa74	-0.6276009
89	0xbf557e9a	-0.83396304
90	0xbd68ca91	-0.056833807
91	0x3d258b61	0.040416125
92	0xbf5e6554	-0.86873364
93	0xbe98af47	-0.29821226
94	0x3dcf3ee1	0.10119415
95	0x3f0f1783	0.5589525
96	0x3e812b44	0.25228322
97	0xbdf02cad	-0.11727271
98	0xbed64e04	-0.41856396
99	0xbe72dd18	-0.23717153
100	0x3f3e126d	0.74246866
101	0x3eced83c	0.4039935
102	0x3d908193	0.07055964
103	0x3ee077f9	0.43841532
104	0xbde4ec5a	-0.11177893
105	0x3e7bcd1b	0.2458996
106	0x3f75168f	0.95737547
107	0xbc9b3b00	-0.018949032
108	0x3ee086f0	0.4385295
109	0x3eb90616	0.36137456
110	0xbe4217cf	-0.18954395
111	0xbebf0dfa	-0.3731535
112	0xbe6c98b9	-0.23105134
113	0x3e58355a	0.21114102
114	0x3e8c660b	0.27421603
115	0xbeb1d473	-0.34732398
116	0xbe03af1c	-0.12859768
117	0x3eb3bd80	0.35105515
118	0xbee12f28	-0.4398129
119	0xbdced959	-0.101000495
120	0x3eb71526	0.35758322
121	0x3d2ef347	0.042712476
122	0x3da35d39	0.07976765
123	0x3e119c6f	0.14219831
124	0x3f0cc1c8	0.54983187
125	0xbe3a89fb	-0.18216698
126	0x3d635cd6	0.055508457
127	0xbd98db37	-0.07463687
128	0xbdbed967	-0.0931881
129	0x3ec05cb4	0.37570727
130	0x3e96a47f	0.29422376
131	0xbda9bc2c	-0.08287844
132	0x3f4590fc	0.77174354
133	0xbc5f457c	-0.013627406
134	0x3d8e6ab8	0.06953949
135	0xbcc64f8c	-0.024207853
136	0x3ea5af0d	0.32360116
137	0x3e3565ab	0.17714565
138	0x3ee8d21d	0.45472804
139	0xbd56315f	-0.052293178
140	0xbd14193e	-0.036156885
141	0x3e8ba0e5	0.2727119
142	0x3e2ff637	0.17183767
143	0xbf849d1c	-1.0360446
144	0xbea8a68d	-0.32939568
145	0xbee0e561	-0.43925002
146	0x3ed746f6	0.42046326
147	0x3e1699fe	0.14707181
148	0xbca31bf1	-0.019910784
149	0xbe481b48	-0.19541657
150	0xbe540ab7	-0.20707212
151	0xbf10ee13	-0.5661327
152	0xbd38227a	-0.044954754
153	0xbf2be539	-0.6714664
154	0xbf7776b3	-0.96665496
155	0xbdeaada5	-0.11458901
156	0xbee2d946	-0.4430639
157	0xbf382649	-0.7193342
158	0xbed3a69f	-0.4133806
159	0xbf03562d	-0.5130337
160	0xbd1a090e	-0.03760629
161	0x3ee0bdd8	0.4389484
162	0xbec0a44d	-0.37625352
163	0xbe12a79d	-0.14321752
164	0xbebc7110	-0.3680501
165	0xbf2d3b79	-0.67668873
166	0x3c6765b2	0.014123367
167	0x3f0f7772	0.56041634
168	0xbcb41519	-0.021982716
169	0xbf41af26	-0.7565788
170	0x3e5c68c6	0.21524343
171	0x3de21f9a	0.11041184
172	0xbd574ea2	-0.052565224
173	0xbf3f0834	-0.7462189
174	0x3e0f4c67	0.13993989
175	0xbf1fa187	-0.62355846
176	0x3ec89d22	0.39182383
177	0xbf8cc340	-1.0997086
178	0xbeba5a4e	-0.36397022
179	0xbed1d5f2	-0.4098354
180	0xbf191174	-0.59792256
181	0xbed41d6e	-0.41428703
182	0xbe6b0ec8	-0.22954857
183	0xbf41aa46	-0.7565044
184	0xbebe2a0d	-0.37141457
185	0xbeb84eb8	-0.35997558
186	0xbf00bc66	-0.50287473
187	0x3dbf25bc	0.09333369
188	0xbd8a0b9a	-0.06740494
189	0xbf036f36	-0.5134157
190	0x3dbd6d8b	0.09249409
191	0x3ee3878b	0.4443935
192	0x3eb43a7f	0.3520088
193	0xbf00df02	-0.5034028
194	0xbd04ad06	-0.03239157
195	0x3d98321c	0.074314326
196	0xbc1bcbf9	-0.00950908
197	0xbea38e4c	-0.319445
198	0xbf888e05	-1.0668341
199	0xbe34ed1c	-0.17668575
200	0x3ed3e575	0.41386
201	0xbea80e9d	-0.3282365
202	0xbea70a95	-0.3262526
203	0xbeedde13	-0.46458492
204	0xbf70b680	-0.9402847
205	0xbee64711	-0.44976094
206	0xbe3effe9	-0.1865231
207	0xbea4b209	-0.3216708
208	0xbf1c4cdc	-0.6105478
209	0x3d525525	0.05135073
210	0xbf4f22bb	-0.8091237
211	0xba938626	-0.0011255189
212	0xbf5e4f1c	-0.8683946
213	0x3df4daae	0.11955772
214	0x3e6b59dc	0.22983497
215	0x3ed0b6ee	0.40764564
216	0x3f2d99b6	0.6781267
217	0x3e949620	0.29020786
218	0xbec10e1f	-0.37706086
219	0x3e0ce5a0	0.1375947
220	0x3f717722	0.9432241
221	0xbe113060	-0.1417861
222	0x3e1de4bb	0.15419285
223	0x3e0d26f4	0.1378439
224	0x3e815be6	0.25265425
225	0x3f2488cb	0.6427123
226	0x3e21de53	0.15807466
227	0xbd83fa49	-0.064442225
228	0xbd6c382d	-0.05767076
229	0x3c26f37b	0.010189886
230	0xbd95ea48	-0.07320076
231	0x3e8726b3	0.26396713
232	0x3ecf50dd	0.4049138
233	0x3eedee8b	0.46471056
234	0xbea616cc	-0.32439268
235	0xbf7c6ae5	-0.9860061
236	0x3c31cf52	0.010852652
237	0x3db4e38c	0.088324636
238	0xbe514984	-0.204382
239	0xbef7abcb	-0.48373255
240	0x3efb64b8	0.4910028
241	0x3dcf2a31	0.10115469
242	0xbd1ed8cf	-0.038780984
243	0x3f21a2c1	0.6313897
244	0x3f4adf10	0.79246616
245	0xbe5bc8e8	-0.21463358
246	0x3e74a89c	0.23892444
247	0xbdb9e228	-0.09076339
248	0x3f2775af	0.65413946
249	0x3f047f78	0.51757
250	0x3f3b5d8b	0.7318961
251	0x3debee8c	0.115201086
252	0xbf8bfc52	-1.0936377
253	0x3e2448ee	0.16043445
254	0xbd80bf09	-0.06286437
255	0xbe2e5b0b	-0.17026918

bias f4 [24]
0	0x3e00729b	0.12543719
1	0xbcc08ddc	-0.023505144
2	0x3dd69388	0.10477358
3	0x3dd42cee	0.10360132
4	0xbd876b5f	-0.06612276
5	0xbe588fc1	-0.21148588
6	0x3e3d1a79	0.1846713
7	0x3e29342c	0.16523808
8	0x3e0c74d3	0.1371644
9	0x3df579cb	0.11986121
10	0xbea14ac0	-0.31502342
11	0x3e1fb4d6	0.15596327
12	0xbd1528f6	-0.036416017
13	0x3cc867eb	0.024463614
14	0xbe0a6b13	-0.13517408
15	0x3d33668f	0.04379898
16	0xbd10f1dc	-0.035386905
17	0xbea39b78	-0.3195455
18	0x3e0eadb3	0.13933448
19	0x3d3f2a5e	0.046671264
20	0x3aaccb5f	0.0013183168
21	0x3cd3508e	0.025795247
22	0xbd304934	-0.043038562
23	0x3da54eef	0.08071696

weight f4 [24, 24]
0	0x3d97b725	0.07407979
1	0xbf078a57	-0.52945465
2	0x3b97b250	0.004629411
3	0x3e89262c	0.26786935
4	0x3e5160ba	0.20447055
5	0x3acee424	0.0015784544
6	0x3ebaf2ee	0.36513466
7	0x3ebf9a9b	0.37422642
8	0x3f05821f	0.52151674
9	0x3e7a6ba1	0.2445512
10	0xbf0282ea	-0.5098101
11	0x3d7d15b7	0.061788287
12	0xbdb2a9fe	-0.0872383
13	0xbd8f858f	-0.07007896
14	0xbf3339c9	-0.7001005
15	0xbd2b4e91	-0.041822974
16	0x3e189940	0.1490221
17	0xbf5e07be	-0.86730564
18	0xbd11bc61	-0.035580043
19	0xbf2c48f4	-0.6729882
20	0xbd4618d4	-0.04836352
21	0x3d9a2845	0.07527212
22	0x3c8e4c60	0.017370403
23	0x3e14736e	0.14497158
24	0x3d862e65	0.06551818
25	0x3ed5268d	0.41630974
26	0x3e792280	0.24329567
27	0xbee84c48	-0.45370698
28	0x3da3c10a	0.07995804
29	0xbda4c3e8	-0.08045179
30	0xbf03373f	-0.51256174
31	0xbf2a48db	-0.6651742
32	0xbf41e000	-0.7573242
33	0x3e4e6849	0.20156969
34	0x3f3e9c87	0.7445759
35	0xbc489ad9	-0.01224395
36	0x3ed0e80e	0.40802044
37	0xbd0aba14	-0.033868864
38	0x3e6321a3	0.221808
39	0xbda17c1e	-0.078850016
40	0x3d7f90cd	0.062393952
41	0x3e2f094e	0.17093393
42	0x3e1bde46	0.1522151
43	0x3e6f6797	0.2337936
44	0x3d93cd26	0.07216863
45	0x3ec7b106	0.39002246
46	0xbc8ce31b	-0.017198136
47	0x3e52ef75	0.20599158
48	0x3e0853cc	0.13313216
49	0x3ea023cf	0.3127732
50	0x3e74d6e3	0.23910098
51	0xbe49b4cf	-0.19697879
52	0x3e127b02	0.14304736
53	0xbcfc73ac	-0.030816875
54	0xbe7dd03a	-0.24786463
55	0xbe4ed5f0	-0.20198798
56	0xbe7776fa	-0.2416648
57	0x3ea24fb2	0.31701428
58	0x3f44dca9	0.768992
59	0x3d7ba66f	0.06143802
60	0x3eb95db0	0.3620429
61	0x3e0f4521	0.13991214
62	0x3e081cf6	0.13292298
63	0xbd21c526	-0.039494656
64	0x3d29e28b	0.041475814
65	0x3d8a9d01	0.06768227
66	0x3d0aedbd	0.03391813
67	0x3d196d0d	0.037457515
68	0x3e24a0bb	0.16076939
69	0x3f1935f1	0.59847933
70	0x3c9353de	0.017984327
71	0x3d97b8a2	0.07408263
72	0x3d58b00c	0.052902266
73	0xbf014495	-0.5049527
74	0x3e0ff557	0.14058433
75	0x3ef9266a	0.4866212
76	0x3ee4430d	0.44582406
77	0xbda15cb9	-0.078790136
78	0x3eaba907	0.33527395
79	0x3e0ad6c3	0.13558488
80	0x3f0665d7	0.52499145
81	0xbcb97d43	-0.022642737
82	0xbef78e83	-0.48350915
83	0x3e2e47cb	0.17019574
84	0xbe497a41	-0.19675542
85	0xbd35c272	-0.04437489
86	0xbf4f1ebd	-0.8090628
87	0xbdd454d6	-0.10367744
88	0x3da18b9f	0.07887959
89	0xbf308958	-0.6895957
90	0x3c996cd8	0.018728659
91	0xbf350b95	-0.707208
92	0x3e3720de	0.17883632
93	0x3dc56262	0.09637906
94	0xbd87ce8c	-0.066311926
95	0x3deacf4d	0.11465321
96	0x3e0c73a7	0.13715993
97	0x3ef08353	0.46975192
98	0x3e92f237	0.2870042
99	0xbf4b4f0d	-0.79417497
100	0x3dd41e28	0.10357314
101	0xbdcf4be3	-0.10121896
102	0xbf4edb80	-0.8080368
103	0xbf4caef5	-0.79954463
104	0xbf90a11e	-1.1299169
105	0x3e829731	0.25505975
106	0x3f1adcf3	0.6049339
107	0x3d010bde	0.031505458
108	0x3ea989b2	0.33112866
109	0xbdea7fac	-0.11450133
110	0x3e5a8ebb	0.2134351
111	0xbe220fd6	-0.15826353
112	0xbd867363	-0.06564977
113	0x3e28d91b	0.16489069
114	0x3d7ae46e	0.061253004
115	0x3e882438	0.26590133
116	0x3e7f62ab	0.24939983
117	0x3ed666f4	0.41875422
118	0x3cc2c072	0.023773406
119	0x3d84c753	0.064833306
120	0x3e3d4035	0.18481524
121	0x3ef498a3	0.47772703
122	0x3e77586b	0.24154823
123	0xbf296f3c	-0.66185355
124	0x3daec3ef	0.08533465
125	0xbdc6cbf8	-0.09706873
126	0xbf254765	-0.64562064
127	0xbf0a393b	-0.53993577
128	0xbf518742	-0.8184701
129	0x3e90edd5	0.2830645
130	0x3f3fcbfc	0.7492063
131	0xbd8cac55	-0.06868807
132	0x3ee22717	0.44170448
133	0x3d3fd359	0.046832416
134	0x3e9ee9fe	0.31037897
135	0xbca014eb	-0.019541224
136	0x3e0b9e95	0.13634713
137	0x3e186d1d	0.14885373
138	0x3dfaaea1	0.12240339
139	0x3e6b01c4	0.22949892
140	0x3d59b58c	0.053151652
141	0x3ed4b049	0.41540745
142	0xbd3a3ba3	-0.04546703
143	0x3e1f65dc	0.155662
144	0xbdf00c24	-0.11721066
145	0xbdd50e08	-0.10403067
146	0x3c2ba9a5	0.010477458
147	0x3ee9d89a	0.45673066
148	0xbed0db6f	-0.40792415
149	0xbf423384	-0.75859857
150	0x3e43470c	0.19070071
151	0x3ea1ef13	0.31627712
152	0x3f009d94	0.50240445
153	0x3e4598cb	0.19296567
154	0xbe4a73aa	-0.19770685
155	0xbf1a7d10	-0.6034708
156	0x3e540f24	0.207089
157	0xbd0412b3	-0.032244395
158	0xbef4c8e7	-0.47809526
159	0xbf062408	-0.5239873
160	0xbf071c8d	-0.5277794
161	0xbf1fecad	-0.62470514
162	0xbe093d61	-0.1340232
163	0xbeb57452	-0.35440308
164	0x3d205fca	0.03915385
165	0x3ea3b5a8	0.3197453
166	0xbece1399	-0.40249327
167	0x3df2aa2f	0.11848866
168	0xbc10b758	-0.008832775
169	0x3ed27aae	0.41109222
170	0x3e8320c9	0.2561095
171	0xbe8cb0e0	-0.27478695
172	0xbc07073e	-0.008241473
173	0xbd01c420	-0.03168118
174	0xbe972ceb	-0.29526457
175	0xbe5f2be8	-0.21794093
176	0xbe9baa75	-0.30403486
177	0x3e6d5402	0.23176578
178	0x3f5677c1	0.8377648
179	0xbcb8a780	-0.022540808
180	0x3e99f959	0.3007305
181	0x3dcf5db7	0.101252966
182	0x3e4a279d	0.19741674
183	0x3c71534e	0.014729334
184	0x3d872ebe	0.06600712
185	0x3c2fb8ea	0.010725239
186	0x3ddee6f3	0.10883894
187	0xbc92a3c8	-0.017900363
188	0x3e2795f0	0.1636579
189	0x3f2e2176	0.6801981
190	0xbe01911e	-0.12653014
191	0x3e81983b	0.25311455
192	0xbef891e1	-0.48548797
193	0x3cca47e6	0.024692487
194	0xbed0a8d7	-0.40753815
195	0x3e927214	0.2860266
196	0xbf1f84d1	-0.62312037
197	0xbefd8336	-0.49514169
198	0x3df5ebc2	0.12007858
199	0x3d80719e	0.06271671
200	0x3d3247a4	0.043525353
201	0xbef3b0d9	-0.47595862
202	0x3dc48527	0.09595709
203	0xbed364fe	-0.41287988
204	0x3e8390a9	0.25696304
205	0xbf53d971	-0.82753664
206	0xbdce1fc8	-0.100646555
207	0xbf008ba5	-0.5021308
208	0xbf16a3a6	-0.5884346
209	0xbeeef27c	-0.46669376
210	0xbf083c5c	-0.532171
211	0xbdb1c206	-0.08679585
212	0xbf338771	-0.7012854
213	0xbde159da	-0.11003466
214	0xbf08a679	-0.5337902
215	0xbf485b67	-0.7826447
216	0x3c0f6c6d	0.008753878
217	0xbe0c297a	-0.13687697
218	0x3dc33600	0.09531784
219	0x3e840734	0.25786746
220	0xbf035ffa	-0.51318324
221	0xbf4c5c65	-0.7982848
222	0x3e8f7b65	0.2802383
223	0x3e2f619c	0.17127079
224	0x3ee28b99	0.4424713
225	0x3e9f592c	0.3112272
226	0xbda11549	-0.07865388
227	0xbf2f48ee	-0.68470657
228	0x3e81e6b4	0.25371325
229	0x3b429f98	0.0029697176
230	0xbf05f9d4	-0.5233433
231	0xbef4d30c	-0.47817266
232	0xbf081410	-0.5315561
233	0xbf00ca03	-0.50308245
234	0xbdad03d4	-0.08447996
235	0xbf124c6c	-0.5714786
236	0xbdf99dd3	-0.12188306
237	0x3ea576db	0.32317242
238	0xbf09b45f	-0.5379085
239	0xbe217dc3	-0.1577063
240	0xbdb81ed5	-0.08990256
241	0xbf3e15c9	-0.7425199
242	0xbd594588	-0.053044826
243	0x3eaab762	0.33343035
244	0x3eedd1f3	0.4644924
245	0x3e1b0752	0.15139511
246	0x3eae6877	0.34064075
247	0x3ed6c0fb	0.41944107
248	0x3f1ed252	0.62039673
249	0xbda1d49d	-0.07901881
250	0xbefbee31	-0.49205163
251	0xbdcdca74	-0.100483805
252	0xbe52a200	-0.2056961
253	0xbe0ceb5f	-0.13761662
254	0xbf3d8014	-0.74023557
255	0x3cc94602	0.024569515

bias f4 [24]
0	0x3e999174	0.29993784
1	0x3d91f14b	0.07126101
2	0x3c94d86c	0.018169604
3	0x3e71ac43	0.23600869
4	0x3e0c5d5b	0.13707487
5	0x3dbd1c17	0.09233873
6	0x3e850b97	0.25985405
7	0x3d628923	0.055306565
8	0x3ef7b4de	0.48380178
9	0x3ea3a7a6	0.31963843
10	0x3e7ff7da	0.24996892
11	0x3e728f6d	0.23687525
12	0x3e0dc5f3	0.13845043
13	0x3ea63bc4	0.32467473
14	0x3eacd384	0.33755124
15	0x3e91bcf0	0.2846446
16	0x3d840a9e	0.064473376
17	0x3c478a1c	0.012178924
18	0x3ee4e593	0.447064
19	0x3e71026a	0.23536077
20	0x3dc66840	0.09687853
21	0x3d0f07e8	0.03491965
22	0x3eb5d763	0.3551589
23	0x3ec729c3	0.3889905

weight f4 [1, 24]
0	0x3ecab913	0.39594325
1	0xbe6a088f	-0.22854827
2	0xbe520e9e	-0.20513389
3	0x3efab9af	0.4896979
4	0xbe934be5	-0.2876884
5	0xbe89b775	-0.2689778
6	0x3f1e72a2	0.61893666
7	0xbe67dbfa	-0.22642508
8	0x3f870b4a	1.055032
9	0x3f130bc3	0.5743982
10	0x3eec863e	0.4619617
11	0x3f073afb	0.5282437
12	0xbe9ae6a9	-0.30254105
13	0x3ebc3e74	0.36766398
14	0x3ea5827f	0.32326123
15	0x3f03a479	0.5142284
16	0xbe634690	-0.22194886
17	0xbe22437d	-0.15846057
18	0x3f867d83	1.0507053
19	0x3ecf713f	0.40516087
20	0xbe6d4e95	-0.23174508
21	0xbe4d2895	-0.20035012
22	0x3f07b4d6	0.5301031
23	0x3f845a0d	1.0339981
