successful_model.pt (torch, 14748 bytes, 9 tensors)

weight f4 [24, 7]
-0.93106735 0.91748935 0.1934068 -0.08740515 -0.34855172 -0.12106821 -0.101009205 -0.27102095
0.19323325 -0.30705807 -0.26136595 0.23001045 0.6745034 -0.29388294 -0.61651456 0.78986037
-0.32757398 0.30104354 0.18387425 0.17697869 0.027606046 -0.18966301 0.18696435 0.1517454
-0.088878624 0.07894666 0.0885141 0.5488525 -0.050514817 0.27622896 -0.06399953 -0.47628382
-0.21000922 0.032665126 -0.052772366 -0.085215926 -0.26407596 -0.7712787 -0.072095506 0.5447588
0.34635612 -0.21654156 -0.61009187 -0.6035472 -0.27957484 0.036657684 -0.4551909 0.82947356
-0.08008559 0.52971536 -1.0229329 -0.25213578 0.25504786 -0.239397 0.010391711 0.012135112
0.044003204 -0.046168838 -0.16536126 -0.06014401 -0.7788535 0.28780904 -0.011907814 -0.09480388
0.012414078 -0.070740774 -0.03551316 1.0922396 0.23019162 -0.12638001 -0.6253742 -0.119506404
-0.53183246 0.44551212 0.152342 0.27057308 0.06796314 0.28679553 0.03771604 0.10206218
0.15051794 1.5949827 0.17098118 0.21082692 -0.08857524 0.27749255 -0.36612883 -0.3394382
0.25043386 -0.08348219 0.4814454 -0.036919262 0.18171641 -0.3537905 0.13512267 0.7672803
-0.27397457 0.1382899 -0.33254632 0.6071258 0.15254906 0.37114233 -0.017100645 -0.5383625
-0.23799418 0.07318529 0.5908425 0.8427736 -0.15789609 0.054271705 -0.17244777 0.038214225
-0.037988883 -0.61306655 -1.017697 0.060525343 -0.11357102 -0.013264537 -0.12835021 -0.027395748
0.2116717 0.4250549 0.50810534 0.22440772 0.48039627 -0.09357532 -0.15084305 0.22165804
0.3263296 -0.38714415 0.77856374 0.28214 -0.14222896 -0.49690405 -0.68666196 0.11846813
0.18634295 -0.12632509 -0.076382585 -0.21750626 -0.8618168 0.095505215 -0.46013668 0.36932054
0.62904817 -0.17914306 -0.019978095 -0.3649064 -0.6991931 0.32954654 0.27643055 0.65919614
-0.3858473 0.04682989 0.012725107 -0.8022875 0.36063752 -0.33301812 0.20661682 0.1950942
0.06146571 0.23549823 -0.038136475 -0.07818267 -0.4337919 -0.055373814 0.18117614 -0.053579513
00000000: 6e5a 6ebf 95e0 6a3f 6f0c 463e 7901 b3bd
00000010: 5f75 b2be 9cf2 f7bd eadd cebd 42c3 8abe
00000020: f0de 453e b736 9dbe c2d1 85be dc87 6b3e
00000030: 41ac 2c3f d377 96be e6d3 1dbf 4a34 4a3f
00000040: c7b7 a7be 6122 9a3e 8849 3c3e e739 353e
00000050: 1326 e23c 0537 42be 9573 3f3e 2563 1b3e
00000060: ff05 b6bd c9ae a13d e146 b53d 9981 0c3f
00000070: a0e8 4ebd e26d 8d3e 3012 83bd 79db f3be
00000080: a80c 57be decb 053d d627 58bd b085 aebd
00000090: f734 87be 8572 45bf cfa6 93bd 5075 0b3f
000000a0: 9755 b13e 12bd 5dbe fb2e 1cbf 1282 1abf
000000b0: 6f24 8fbe 5e26 163d c80e e9be 6158 543f
000000c0: ea03 a4bd 6d9b 073f 77ef 82bf f117 81be
000000d0: a295 823e 7d24 75be ff41 2a3c 59d2 463c
000000e0: b43c 343d 891b 3dbd 7654 29be 9159 76bd
000000f0: f162 47bf b55b 933e fe18 43bc 8928 c2bd
00000100: 6b64 4b3c 8ae0 90bd 3f76 11bd 82ce 8b3f
00000110: 5ab7 6b3e c369 01be 8618 20bf c6bf f4bd
00000120: 2c26 08bf 2a1a e43e 8bff 1b3e 8e88 8a3e
00000130: 4230 8b3d ddd6 923e 227c 1a3d fa05 d13d
00000140: 6021 1a3e 6528 cc3f b115 2f3e 03e3 573e
00000150: ef66 b5bd 8113 8e3e 3d75 bbbe d8ca adbe
00000160: de38 803e b6f8 aabd 0380 f63e a738 17bd
00000170: de13 3a3e 0724 b5be 995d 0a3e 7b6c 443f
00000180: 6546 8cbe de9b 0d3e 8343 aabe 996c 1b3f
00000190: d235 1c3e 5e06 be3e a716 8cbc 20d2 09bf
000001a0: bfb4 73be 2be2 953d 7441 173f 03c0 573f
000001b0: 83af 21be 024c 5e3d 2696 30be 8586 1c3d
000001c0: 3b9a 1bbd eef1 1cbf e543 82bf 6ce9 773d
000001d0: ec97 e8bd 8053 59bc 3d6e 03be 0c6d e0bc
000001e0: 77c0 583e cca0 d93e 3113 023f 23cb 653e
000001f0: 80f6 f53e 6ba4 bfbd 9a76 1abe 53fa 623e
00000200: ac14 a73e c237 c6be f44f 473f a774 903e
00000210: 78a4 11be 356a febe 14c9 2fbf 6b9f f23d
00000220: b0d0 3e3e 5d5b 01be 796e 9cbd f6b9 5ebe
00000230: 07a0 5cbf 3d98 c33d 0997 ebbe 9517 bd3e
00000240: 4d09 213f 4771 37be 1aa9 a3bc 03d5 babe
00000250: 52fe 32bf 53ba a83e 4e88 8d3e 14c1 283f
00000260: c78d c5be b3d0 3f3d f87c 503c b762 4dbf
00000270: 7ba5 b83e 5a81 aabe 5c93 533e c6c6 473e
00000280: 78c3 7b3d 7326 713e fe34 1cbd 3c1e a0bd
00000290: f919 debe a7cf 62bd 3d86 393e 3176 5bbd

bias f4 [24]
-0.00041469265 0.51549035 0.004185422 0.39738652 -0.4066936 -0.29522106 -0.31111273 -0.31875747
-0.31153858 -0.50486803 0.30863208 -0.16166613 -0.23192465 -0.42383677 0.36368966 0.26062074
-0.18856834 0.4522183 0.41760728 0.007828515 -0.39129508 0.017610613 0.0025108492 0.44634295
00000000: 1b6b d9b9 2df7 033f dd25 893b 3f76 cb3e
00000010: 253a d0be 3727 97be 2b4a 9fbe 2e34 a3be
00000020: fc81 9fbe 083f 01bf 0605 9e3e ce8b 25be
00000030: a87d 6dbe 2201 d9be 8835 ba3e 1570 853e
00000040: 0f18 41be 2889 e73e 9fd0 d53e 2c43 003c
00000050: d457 c8be 2244 903c 0f8d 243b 1087 e43e

weight f4 [24, 24]
-0.030818168 -0.92159396 -0.06112575 -0.000392532 0.14571695 -0.58711076 -0.26272103 0.033814453
0.4185855 0.6075063 -0.12508884 -0.3383882 -0.3374078 0.055733062 0.42604566 0.31237352
0.29280436 0.116344236 0.76808196 -0.13966298 0.7777711 -0.52318126 -0.2585778 -0.059812177
0.047371935 -0.1551683 -0.07362716 -0.10995078 0.2047738 0.5530955 0.17801152 0.19047067
0.3992804 0.0575962 -0.17266747 -0.46867636 -0.15343973 0.6362227 0.032992706 0.65116
0.392668 -0.23692794 0.5754061 -0.13936038 0.90814024 -0.7816001 -0.23024535 -0.15700285
-0.022558223 -0.081754826 0.46438727 -0.71719307 -0.062301893 -2.2688434 0.20082933 -0.82928985
-0.58270866 -0.568776 0.39536917 0.1657036 0.12962131 -0.8685306 -0.040385436 -0.24042338
0.08809426 -0.12816298 0.074430525 0.12769209 -0.3123056 0.07990763 0.30649248 0.013633368
-0.0069743046 -0.23975101 0.19422261 0.16487974 0.027601609 -0.38863072 0.1455832 -0.86764336
-0.5847751 -0.54090154 0.14334667 0.33148673 0.114607446 -0.20965956 -0.049384557 -0.5881597
-0.031718526 0.213919 -0.15146033 0.34762558 -0.702381 -0.5262401 0.18653496 -0.1521797
-0.22619714 -0.14991054 0.1440318 0.12373169 0.48158285 -0.11334252 0.053380482 0.34711444
-0.111906245 -0.3088526 -0.5089057 -0.22518063 -0.07300034 -0.13004 0.39441535 0.45749193
0.12051067 0.16050394 0.36982235 -0.4078368 -0.14423274 -0.23349074 0.037882138 -0.40575776
-0.30737475 0.20676437 -0.027613321 -0.35726503 0.10067389 -0.6277123 -0.05740986 -0.24508266
-0.79576546 -0.9545741 0.052689068 0.20622522 -0.8751737 0.20406902 0.09968767 0.1483604
-0.035108466 -0.08244966 0.3520419 -0.122727975 0.14336926 -1.1351385 0.3225069 0.18677042
-0.38370413 -0.42922997 0.09525918 0.123891965 0.09431244 0.15944554 -0.33647516 0.116117045
-0.024702827 0.60685754 0.1851266 -0.22773115 -0.049721517 0.10263682 0.50949854 0.4700694
-0.0011067615 -0.27783683 -0.22990705 0.1743182 0.87001544 0.081414714 -0.548905 -0.26335332
-0.4923571 0.48428002 -0.40388593 -0.23268476 -0.0689906 0.25985813 0.13721645 0.26462346
0.3727713 0.8669959 -0.2729609 -0.29250935 0.32411394 0.7188918 -0.40126655 -0.12033342
-0.021171842 0.067406625 -0.3516221 0.33159631 0.21070185 0.41322634 0.13667868 -0.034913447
0.25673077 -0.5210246 -0.45211503 0.111858636 0.16353574 0.56086063 -0.6366802 0.2968616
0.29932958 0.3717775 -0.28130105 -0.29056925 -0.11398311 0.24454597 0.32648695 -0.13379647
-0.2971773 0.49025545 0.5416382 -0.5774482 -0.028771786 -0.2553572 0.05183289 -0.20470853
-0.06831382 0.06874457 -0.31447482 -0.055599853 0.14119767 0.5490172 -0.2592304 0.49651504
0.41646922 0.6788342 -0.18569148 -0.34492517 0.105540626 0.560753 0.13535106 0.039587613
0.15664895 0.39715245 -0.11346757 -0.3312531 0.5219962 -0.059548724 0.013756637 -0.33598575
-0.3368035 0.2591674 -1.7012501 0.17631628 0.15112709 0.03302523 -0.41730973 0.27279222
0.2812387 0.74320346 -0.33015323 -0.14477931 -0.06415189 0.20598261 0.08480054 -0.28079525
00000000: 6276 fcbc 95ed 6bbf ff5e 7abd c1cc cdb9
00000010: d336 153e e44c 16bf 5f83 86be 0681 0a3d
00000020: d750 d63e 8885 1b3f 4a17 00be 3841 adbe
00000030: b7c0 acbe 5a48 643d a822 da3e 6cef 9f3e
00000040: 74ea 953e e345 ee3d 05a1 443f d003 0fbe
00000050: 021c 473f 35ef 05bf 4f64 84be 9dfd 74bd
00000060: 1309 423d 70e4 1ebe d6c9 96bd e02d e1bd
00000070: 39b0 513e ab97 0d3f a748 363e be0a 433e
00000080: 7b6e cc3e fee9 6b3d becf 30be 59f6 efbe
00000090: 4e1f 1dbe 7edf 223f 5c23 073d 6cb2 263f
000000a0: c80b c93e 3d9d 72be d04d 133f 7db4 0ebe
000000b0: e17b 683f f216 48bf 70c5 6bbe 5bc5 20be
000000c0: 06cc b8bc 136f a7bd 2bc4 ed3e f799 37bf
000000d0: 4530 7fbd bb34 11c0 34a6 4d3e 574c 54bf
000000e0: 652c 15bf 4e9b 11bf d46d ca3e 34ae 293e
000000f0: 73bb 043e 0558 5ebf 336b 25bd 8c31 76be
00000100: c36a b43d 283d 03be 086f 983d b7c1 023e
00000110: 85e6 9fbe 9da6 a33d 95ec 9c3e 7d5e 5f3c
00000120: b588 e4bb 4a81 75be 4be2 463e 3cd6 283e
00000130: c51c e23c 9bfa c6be c313 153e e01d 5ebf
00000140: d2b3 15bf 8678 0abf 78c9 123e a1b8 a93e
00000150: 4fb7 ea3d ffb0 56be 7647 4abd a291 16bf
00000160: 49eb 01bd 950d 5b3e 6b18 1bbe fbfb b13e
00000170: 3ecf 33bf acb7 06bf 0503 3f3e ffd4 1bbe
00000180: 39a0 67be 2682 19be 127d 133e 0a67 fd3d
00000190: 0792 f63e 2020 e8bd 7ea5 5a3d fcb8 b13e
000001a0: 1a2f e5bd ee21 9ebe a547 02bf c095 66be
000001b0: 3481 95bd 3529 05be cff0 c93e 623c ea3e
000001c0: 4cce f63d 255b 243e 5b59 bd3e fccf d0be
000001d0: bfb1 13be 3218 6fbe 4d2a 1b3d 7bbf cfbe
000001e0: 3960 9dbe 0aba 533e 5535 e2bc 71eb b6be
000001f0: 1d2e ce3d c1b1 20bf 9a26 6bbd f3f6 7abe
00000200: 49b7 4bbf f85e 74bf 7ed0 573d b42c 533e
00000210: 620b 60bf 78f7 503e 0d29 cc3d caeb 173e
00000220: e5cd 0fbd 5edb a8bd d63e b43e ce58 fbbd
00000230: 64cf 123e 384c 91bf a01f a53e bf40 3f3e
00000240: de74 c4be 08c4 dbbe 3f17 c33d 12bb fd3d
00000250: e126 c13d b145 233e 7946 acbe c6ce ed3d
00000260: 955d cabc 045b 1b3f d491 3d3e 5b32 69be
00000270: caa8 4bbd 4133 d23d 7f6e 023f f0ac f03e
00000280: c110 91ba a140 8ebe c16c 6bbe 7880 323e
00000290: 55b9 5e3f c2bc a63d 0a85 0cbf 3fd6 86be
000002a0: 3b16 fcbe 8df3 f73e 23ca cebe ea44 6ebe
000002b0: f24a 8dbd 200c 853e 7882 0c3e ba7c 873e
000002c0: e1db be3e 71f3 5d3f 88c1 8bbe c9c3 95be
000002d0: 43f2 a53e 4b09 383f cf72 cdbe 5e71 f6bd
000002e0: 9270 adbc 7c0c 8a3d d007 b4be fec6 a93e
000002f0: 3ac2 573e 6792 d33e 7ff5 0b3e 6701 0fbd
00000300: 3772 833e de61 05bf 9f7b e7be 2416 e53d
00000310: ea75 273e 9094 0f3f 79fd 22bf 3efe 973e
00000320: ba41 993e 9f59 be3e b106 90be 7ec5 94be
00000330: fa6f e9bd 426a 7a3e 4c29 a73e f101 09be
00000340: a027 98be c302 fb3e cda8 0a3f a5d3 13bf
00000350: cfb2 ebbc 2ebe 82be b94e 543d 1d9f 51be
00000360: 1ee8 8bbd f4c9 8c3d d802 a1be acbc 63bd
00000370: 1f96 103e 648c 0c3f d9b9 84be 3837 fe3e
00000380: 743b d53e 14c8 2d3f e825 3ebe 089a b0be
00000390: af25 d83d 828d 0f3f 7899 0a3e 9f26 223d
000003a0: 9568 203e 9157 cb3e af61 e8bd 029a a9be
000003b0: 8ba1 053f 5de9 73bd 8563 613c 5306 acbe
000003c0: 8271 acbe 97b1 843e 90c2 d9bf 418c 343e
000003d0: 0fc1 1a3e 7745 073d 9fa9 d5be 6cab 8b3e
000003e0: 85fe 8f3e 9542 3e3f d809 a9be 0741 14be
000003f0: 1162 83bd 1bed 523e e8ab ad3d 65c4 8fbe

bias f4 [24]
0.08682653 0.014126879 0.111807294 0.072187744 0.13318804 0.2127313 0.04905651 -0.17175509
0.1504426 0.04519015 0.10950328 0.16116752 0.010369495 0.27204716 -0.33375147 0.010264559
0.012016544 0.098182596 0.1933574 0.16284522 -0.3317753 -0.016432356 -0.046269238 -0.39793527
00000000: 1cd2 b13d 6d74 673c 39fb e43d 2bd7 933d
00000010: 7262 083e 3cd6 593e 7bef 483d 91e0 2fbe
00000020: a00d 1a3e 4f19 393d 4143 e03d 1909 253e
00000030: d0e4 293c c449 8b3e 79e1 aabe ae2c 283c
00000040: 0ae1 443c f513 c93d 7bff 453e e6c0 263e
00000050: 74de a9be 269d 86bc d084 3dbd 2cbe cbbe

weight f4 [24, 24]
0.071817696 0.009260034 0.013791356 -0.039711557 0.1527067 0.060281128 -1.8693851 -0.71852875
-1.4310185 0.04376688 -0.13828923 -1.0994909 -0.3997793 -0.6038759 -0.889509 -0.29515308
0.17171024 -0.038697295 -0.0078753615 -1.3950082 -0.9882583 0.19856639 0.037121326 -0.059738033
-0.9608496 -0.1723889 0.0016335772 0.05980431 0.2881793 -0.008996843 -0.5897443 -0.64460665
-0.1296403 -0.59592646 0.040958486 -0.7708103 -0.11965488 0.06573539 -1.3678234 -0.70525277
0.08962483 0.69701326 -0.07468422 -1.7084959 -0.9840398 0.061517976 0.06387556 -0.7565397
-0.5622976 -1.9312772 -0.40256706 -0.055331808 0.27501428 -1.6408588 -0.0040508085 -0.079438776
-1.2895231 -0.8085661 -0.1585493 -0.049226932 0.20625383 -0.32142675 0.022442235 -0.3959237
0.44260994 0.16708541 0.2943587 -1.2210659 -0.34769496 -0.083395965 0.25933126 -1.2732295
0.15575488 -0.0002833074 0.12792483 0.01887572 -0.034027845 0.36053386 0.16934945 -1.1642631
-1.525252 0.26139978 -0.24484266 -1.2224417 -1.1338105 -1.3954837 -0.02065709 -1.3591712
0.096254066 0.70340675 -0.0077973977 -0.71140015 -0.8003 -0.15542439 0.49265933 -1.8822192
-0.38683432 0.28296992 -0.25542665 -0.27543646 0.5060393 -0.20948987 -0.08245914 -0.058527656
-0.060948018 -0.07474393 0.93465424 0.06406397 0.029700974 0.16780229 0.07544045 0.2862522
-0.10146486 0.4933812 -0.49295548 0.4834568 1.0247865 -0.025605533 -1.1321275 0.113314055
-0.40200168 0.05476277 0.05917169 0.1345647 0.55987805 -0.3224646 0.17878526 -0.091305725
0.47493213 0.047251854 0.40322444 -0.37048522 -0.12388569 -0.21256821 -0.055316612 0.64914185
-1.252514 -0.014439945 0.28801066 0.05763407 -0.009107655 0.30701122 -0.15069725 -0.06881311
-0.061903153 -0.025821615 -0.116860025 0.14045687 0.21448371 0.1419611 -0.011775029 0.2158438
-1.0360695 0.16406684 0.038011875 -0.029795831 -2.0239542 -2.6902065 -0.13119476 -0.2131962
0.30601954 0.22258028 0.33602354 -1.538761 -0.78779006 -1.4792413 0.009177278 -0.14660604
-0.04834797 0.08689253 -2.013343 -0.99577945 0.44342452 0.18106335 0.054599456 0.091200694
-0.030232696 -0.038800333 -0.1871729 -0.061094847 -0.059298847 0.13707043 -0.079175904 0.09381518
0.1904113 0.71428615 -0.3074053 0.64148515 0.313243 -0.17618155 -0.4091304 0.20323198
0.017517027 -0.0960222 -2.0875194 -1.614857 0.41929114 0.0006844658 0.008567238 -0.11868606
0.73923594 -0.07567041 -0.22795342 0.044058338 -0.108454056 0.0153096095 0.0198014 -0.18381408
0.33418626 0.1917988 0.2511438 0.36566478 0.12354772 -0.13006358 -0.28498557 0.22901312
0.04298451 -0.014200152 0.13090724 -0.03362172 0.06059844 -0.0803683 0.037270457 0.03449666
2.1249378 0.35771012 -0.13279893 0.061195593 0.11329813 -0.10695375 0.2726601 0.21001889
-0.96963876 -0.09073194 -2.004325 0.7340019 -0.16548525 -0.16053733 -0.19994378 -0.37468982
0.21524769 0.1773845 0.16230425 0.22772406 1.1476997 0.3369808 0.018111754 -1.0865542
0.3033662 0.48697466 -0.27336493 0.50718844 -0.36960444 -0.09004353 0.024550661 -0.25818235
00000000: 2815 933d 66b7 173c 24f5 613c 96a8 22bd
00000010: 255f 1c3e 58e9 763d 0348 efbf 80f1 37bf
00000020: 9d2b b7bf e644 333d b19b 0dbe 1ebc 8cbf
00000030: dfaf ccbe 9c97 1abf ddb6 63bf 4e1e 97be
00000040: cfd4 2f3e 0e81 1ebd a907 01bc a18f b2bf
00000050: 7ffe 7cbf fd54 4b3e 880c 183d deaf 74bd
00000060: 3dfa 75bf b786 30be c11d d63a 5df5 743d
00000070: 3d8c 933e 7f67 13bc 7cf9 16bf f104 25bf
00000080: 6dc0 04be a38e 18bf 16c4 273d d353 45bf
00000090: 9e0d f5bd 47a0 863d d614 afbf 728b 34bf
000000a0: 398d b73d 766f 323f 0af4 98bd feaf dabf
000000b0: 08ea 7bbf 46fa 7b3d 31d1 823d 96ac 41bf
000000c0: bcf2 0fbf 1734 f7bf 451d cebe 9ba3 62bd
000000d0: acce 8c3e a907 d2bf a5bc 84bb ccb0 a2bd
000000e0: 180f a5bf 30fe 4ebf bf5a 22be 2ea2 49bd
000000f0: 3434 533e 0c92 a4be c7d8 b73c 83b6 cabe
00000100: c59d e23e 7018 2b3e 2fb6 963e e34b 9cbf
00000110: 1305 b2be 81cb aabd 11c7 843e 2ff9 a2bf
00000120: 357e 1f3e e088 94b9 bafe 023e 41a1 9a3c
00000130: c860 0bbd e597 b83e f169 2d3e 9306 95bf
00000140: 753b c3bf 31d6 853e 09b8 7abe f878 9cbf
00000150: b420 91bf 369f b2bf 0f39 a9bc 52f9 adbf
00000160: da20 c53d 7712 343f 5081 ffbb 521e 36bf
00000170: 76e0 4cbf 9227 1fbe d83d fc3e 8fec f0bf
00000180: 260f c6be 6fe1 903e 48c7 82be 0206 8dbe
00000190: cb8b 013f 8384 56be 56e0 a8bd b2ba 6fbd
000001a0: a1a4 79bd 5813 99bd 8045 6f3f f933 833d
000001b0: 754f f33c 5dd4 2b3e 8680 9a3d a68f 923e
000001c0: cfcc cfbd 769c fc3e a964 fcbe a687 f73e
000001d0: 342c 833f b2c2 d1bc 8ee9 90bf 3311 e83d
000001e0: 2ad3 cdbe ed4e 603d 045e 723d 54cb 093e
000001f0: 2b54 0f3f 141a a5be 7c13 373e 7ffe babd
00000200: 4e2a f33e 298b 413d 6f73 ce3e 3db0 bdbe
00000210: c8b7 fdbd 7bab 59be ac93 62bd 292e 263f
00000220: 6152 a0bf 8595 6cbc 2276 933e b411 6c3d
00000230: 4638 15bc 9330 9d3e 6150 1abe e3ed 8cbd
00000240: 298e 7dbd da87 d3bc 4f54 efbd edd3 0f3e
00000250: 9ea1 5b3e 405e 113e 0dec 40bc 2806 5d3e
00000260: ed9d 84bf 2301 283e 57b2 1b3d 6316 f4bc
00000270: 7788 01c0 582c 2cc0 eb57 06be 1b50 5abe
00000280: 98ae 9c3e 16ec 633e 470b ac3e 1ff6 c4bf
00000290: 9cac 49bf c757 bdbf 4b5c 163c e51f 16be
000002a0: 8508 46bd b6f4 b13d 9dda 00c0 67eb 7ebf
000002b0: 8a08 e33e ac68 393e aea3 5f3d 6ec7 ba3d
000002c0: 8faa f7bc 19ed 1ebd 41aa 3fbe 973e 7abd
000002d0: 59e3 72bd 315c 0c3e fa26 a2bd 2c22 c03d
000002e0: 2efb 423e 75db 363f 3a64 9dbe 5f38 243f
000002f0: 6361 a03e f068 34be 8a79 d1be 0b1c 503e
00000300: de7f 8f3c 4aa7 c4bd eb99 05c0 a2b3 cebf
00000310: 54ad d63e b96d 333a 9a5d 0c3c ad11 f3bd
00000320: 913e 3d3f 17f9 9abd 9f6c 69be 8476 343d
00000330: 291d debd 28d5 7a3c 8c36 a23c c239 3cbe
00000340: 761a ab3e e866 443e ec95 803e 6a38 bb3e
00000350: 9606 fd3d 632f 05be a1e9 91be 6a82 6a3e
00000360: 8710 303d c1a7 68bc 8c0c 063e eeb6 09bd
00000370: 1236 783d 2398 a4bd e8a8 183d 5f4c 0d3d
00000380: fbfe 0740 c825 b73e 71fc 07be 3ba8 7a3d
00000390: da08 e83d 910a dbbd 1b9a 8b3e 310f 573e
000003a0: 3f3a 78bf abd1 b9bd dc46 00c0 8ce7 3b3f
000003b0: f774 29be e663 24be 10be 4cbe 58d7 bfbe
000003c0: e469 5c3e 48a4 353e 1633 263e 7f30 693e
000003d0: d3e7 923f bf88 ac3e 1a5f 943c 3514 8bbf
000003e0: d152 9b3e be54 f93e 7df6 8bbe 1ad7 013f
000003f0: cb3c bdbe be68 b8bd 781e c93c 7a30 84be

bias f4 [24]
0.06914683 0.07112039 0.0744627 -0.0230932 0.032921884 -0.015931739 0.01910746 0.022364337
0.03709627 0.03985483 -0.053276047 0.03979004 -0.13025288 0.07301185 -0.1584247 -0.13818209
-0.106482476 0.021841323 0.012544557 -0.016815277 -0.008120627 0.12545225 0.0653064 -0.04701816
00000000: da9c 8d3d 91a7 913d e67f 983d f32d bdbc
00000010: 19d9 063d 4783 82bc 3f87 9c3c 6a35 b73c
00000020: 42f2 173d d13e 233d fc37 5abd e2fa 223d
00000030: 0361 05be 3d87 953d 163a 22be 9b7f 0dbe
00000040: 7c13 dabd 93ec b23c b087 4d3c 31c0 89bc
00000050: 610c 05bc 8e76 003e 5dbf 853d 1d96 40bd

weight f4 [24, 24]
0.48277432 0.24915479 0.58220804 0.64267737 0.13075215 -0.05331676 0.38746342 -0.0131617505
-0.5880153 -0.7085228 0.64489466 0.15000314 -0.9717248 0.23611592 -1.0265462 -0.016102685
-0.7317342 0.39030814 0.22372863 -0.41864738 -1.4886173 0.30821615 0.1711596 0.21556279
-1.4431691 -1.421569 -1.1491629 -1.4783641 0.18577844 0.046580974 -1.41833 0.26249072
0.80574846 -0.15495151 0.02568549 -0.0031320725 0.08218986 -1.4441501 -0.20923117 -0.05694134
0.19118437 -0.9625784 -0.73347557 -0.029691238 -0.08966978 0.3976822 -0.8978503 0.31626493
0.49652296 0.03775002 0.035658877 -0.01695103 0.27061754 -0.3165971 -0.1577499 0.25272965
-0.31887883 0.1986494 0.95200473 0.15793414 0.22737744 -0.33880356 0.34081644 0.04474698
0.12052328 -0.14408435 0.12888868 0.034383755 -0.12222293 -0.064224415 0.057209045 0.120740704
0.51770747 0.22309802 0.66386414 0.54220045 0.06743717 -0.085898764 0.2814126 -0.027649866
-0.6348449 -0.7933484 0.6561956 0.20742795 -0.9339775 0.14271237 -1.127566 -0.044339206
-0.8762289 0.33750787 0.24874462 -0.5334952 -1.4523944 0.21041511 0.12242033 0.2200879
-1.0029577 -0.9075674 -1.3842528 -1.4283279 0.1738151 -0.070582844 -0.7436856 0.5087028
0.3301429 -0.07077355 0.11151435 0.31899077 0.052610476 -1.0611367 0.06722059 -0.11437427
0.27396354 -1.269732 -0.3481751 -0.028432043 0.17337261 0.13973567 -0.6076592 0.41963026
0.5933288 0.75427765 0.57156354 0.50758076 -1.1926353 -1.1464111 0.042373665 -0.25420493
-0.11333223 -0.10073505 0.08814155 -1.0134572 0.18424556 -0.1796533 0.13951327 -1.659886
0.27620307 1.092706 0.3996472 -0.14591742 0.17974694 -0.1989651 -0.08365503 0.18223295
0.49894854 0.27902535 0.5053943 0.59819645 0.032987844 -0.11461279 0.31430316 0.026353395
-0.50095505 -0.8162427 0.4976518 0.24092987 -0.9518391 0.12436438 -1.0835747 0.0016019379
-0.96690035 0.34169644 0.2894017 -0.44617093 -1.468427 0.2737609 0.071740754 0.24392754
0.39728114 0.92009926 0.61890936 0.36412376 -1.4166558 -1.0030551 0.058135584 -0.42759505
0.045687817 -0.112149395 0.027625974 -1.1670704 0.18999924 -0.22994713 0.17385785 -1.6461483
0.30682677 1.1932962 0.47867954 -0.056569215 0.31785542 -0.11537395 -0.08269709 0.10556722
0.57020956 0.28488997 0.6967056 0.5756849 0.17405266 -0.14054097 0.46239173 -0.033123948
-0.52850497 -0.67143095 0.59160507 0.16775207 -0.90107614 0.18198116 -0.98630583 0.025007289
-0.85496324 0.3871315 0.35003698 -0.38387758 -1.4709978 0.26226652 0.16486996 0.21202794
0.39430165 0.30432338 0.61390185 0.45142657 0.16592807 -0.14950119 0.28868997 -0.10583679
-0.6030746 -0.824187 0.6807448 0.13535592 -0.96094936 0.17772728 -1.0729405 -0.016015088
-0.86268383 0.3991248 0.34843683 -0.4762442 -1.4683753 0.19693974 0.11018561 0.25153697
-0.71576524 -0.64024675 -0.7840682 -0.9955395 0.08935871 -0.044561476 -0.83712214 0.5440663
0.5315043 -0.13140975 0.5098827 0.16009104 0.02658608 -0.98914707 0.046140023 0.040856224
00000000: 322e f73e 6f22 7f3e 960b 153f 8186 243f
00000010: e4e3 053e ad62 5abd 9b61 c63e 62a4 57bc
00000020: 2c88 16bf c061 35bf d117 253f 6c9a 193e
00000030: f5c2 78bf 5fc8 713e de65 83bf c7e9 83bc
00000040: ef52 3bbf 78d6 c73e 1e19 653e f358 d6be
00000050: 038b bebf 82ce 9d3e 7644 2f3e 7ebc 5c3e
00000060: c4b9 b8bf f9f5 b5bf c517 93bf 093b bdbf
00000070: b43c 3e3e b1cb 3e3d d68b b5bf 2f65 863e
00000080: 8845 4e3f 9cab 1ebe 606a d23c 7543 4dbb
00000090: 2853 a83d e9d9 b8bf b240 56be 533b 69bd
000000a0: d6c5 433e 8a6b 76bf 0ec5 3bbf 0a3b f3bc
000000b0: caa4 b7bd 009d cb3e 84d9 65bf 7aed a13e
000000c0: 4238 fe3e c49f 1a3d 0b0f 123d e3dc 8abc
000000d0: 628e 8a3e 0419 a2be 3189 21be c865 813e
000000e0: 1644 a3be c06a 4b3e 95b6 733f 7db9 213e
000000f0: a2d5 683e a977 adbe 7e7f ae3e 9c48 373d
00000100: e9d4 f63d d98a 13be 65fb 033e fbd5 0c3d
00000110: 0450 fabd 1788 83bd 0854 6a3d e746 f73d
00000120: 7a88 043f cf73 643e 00f3 293f a6cd 0a3f
00000130: 801c 8a3d b1eb afbd 5015 903e f981 e2bc
00000140: 3285 22bf e118 4bbf 6ffc 273f fe67 543e
00000150: 2619 6fbf 3123 123e 1554 90bf 079d 35bd
00000160: 8a50 60bf d5cd ac3e e9b6 7e3e 2493 08bf
00000170: 0fe8 b9bf 0f77 573e 83b7 fa3d b95e 613e
00000180: eb60 80bf 5656 68bf 322f b1bf 73d3 b6bf
00000190: 96fc 313e bd8d 90bd 2e62 3ebf 593a 023f
000001a0: 7d08 a93e b9f1 90bd a361 e43d c252 a33e
000001b0: 157e 573d 54d3 87bf f3aa 893d 0f3d eabd
000001c0: f344 8c3e 9486 a2bf 0244 b2be 51ea e8bc
000001d0: 9788 313e de16 0f3e 8e8f 1bbf c7d9 d63e
000001e0: 65e4 173f 5718 413f fd51 123f d0f0 013f
000001f0: 46a8 98bf 99bd 92bf 0290 2d3d 2627 82be
00000200: ba1a e8bd 2e4e cebd 8f83 b43d f7b8 81bf
00000210: deaa 3c3e 09f7 37be 91dc 0e3e 2577 d4bf
00000220: 7d6a 8d3e cadd 8b3f 8f9e cc3e 606b 15be
00000230: 950f 383e 82bd 4bbe 5453 abbd 469b 3a3e
00000240: 2f76 ff3e 69dc 8e3e 8561 013f 6723 193f
00000250: 431e 073d 1cba eabd 58ec a03e 13e3 d73c
00000260: 973e 00bf 48f5 50bf 37cc fe3e 52b6 763e
00000270: baab 73bf c1b2 fe3d 93b2 8abf 1ef8 d13a
00000280: c886 77bf d6f2 ae3e 762c 943e 8470 e4be
00000290: 6af5 bbbf 642a 8c3e d1ec 923d 24c8 793e
000002a0: 6f68 cb3e a08b 6b3f d870 1e3f 6e6e ba3e
000002b0: fa54 b5bf 1c64 80bf 941f 6e3d bded dabe
000002c0: 2623 3b3d 95ae e5bd de4f e23c 9062 95bf
000002d0: 298f 423e 4377 6bbe cb07 323e fdb4 d2bf
000002e0: 6618 9d3e eebd 983f 7c15 f53e 1fb5 67bd
000002f0: f2bd a23e 2d49 ecbd 185d a9bd a033 d83d
00000300: 41f9 113f 19dd 913e 4c5b 323f 1660 133f
00000310: dc3a 323e f9e9 0fbe 9cbe ec3e faac 07bd
00000320: 1a4c 07bf e6e2 2bbf 6e73 173f 33c7 2b3e
00000330: edac 66bf 4559 3a3e 8a7e 7cbf 16dc cc3c
00000340: dfde 5abf 1a36 c63e 0c38 b33e 9a8b c4be
00000350: a849 bcbf cc47 863e acd3 283e da1d 593e
00000360: e8e1 c93e 46d0 9b3e ac28 1d3f 6221 e73e
00000370: 0ce9 293e d716 19be 2ccf 933e f5c0 d8bd
00000380: 1963 1abf ebfd 52bf 4b45 2e3f be9a 0a3e
00000390: c700 76bf 24fe 353e 1d56 89bf 1332 83bc
000003a0: d9d8 5cbf 165a cc3e 5066 b23e 48d6 f3be
000003b0: b9f3 bbbf 92aa 493e fea8 e13d 74c9 803e
000003c0: 643c 37bf 36e7 23bf b2b8 48bf addb 7ebf
000003d0: b301 b73d 1886 36bd a34d 56bf ee47 0b3f
000003e0: aa10 083f 4790 06be ac87 023f e8ee 233e
000003f0: 0dcb d93c be38 7dbf 52fd 3c3d db58 273d

bias f4 [24]
0.0811983 0.17697231 -0.3710393 0.115362965 0.107889004 0.11117494 0.10553283 0.14044185
0.09244359 0.099275984 0.11330846 0.13879643 0.10156685 0.10540845 0.100990236 0.07567134
-0.18393789 0.11513871 -5.6024026e-14 0.09412825 0.18538265 0.1482619 0.13252892 0.12137121
00000000: 4b4b a63d 3b38 353e ddf8 bdbe 6b43 ec3d
00000010: e9f4 dc3d b0af e33d 9921 d83d fdcf 0f3e
00000020: 1153 bd3d 3551 cb3d 440e e83d a720 0e3e
00000030: 4802 d03d 63e0 d73d f8d3 ce3d 93f9 9a3d
00000040: 375a 3cbe d8cd eb3d 4e4f 7ca9 50c6 c03d
00000050: f3d4 3d3e f8d1 173e a9b5 073e 7891 f83d

weight f4 [1, 24]
1.1026725 -1.852124 -0.8877348 1.1188959 -1.3268915 1.6495742 1.0344877 1.9094404
1.1062416 1.1427675 -1.0680419 -1.411945 -0.8992024 1.1078243 -0.95574623 1.1529582
-0.5872294 -1.0230714 2.0922401e-11 0.9843756 -1.5263788 -1.2074608 -1.2959974 1.1436316
00000000: 5f24 8d3f 6612 edbf 9642 63bf fb37 8f3f
00000010: 95d7 a9bf 3f25 d33f 186a 843f 8b68 f43f
00000020: 5399 8d3f 3546 923f 99b5 88bf 9dba b4bf
00000030: 2132 66bf 30cd 8d3f c9ab 74bf 2294 933f
00000040: aa54 16bf 01f4 82bf 0f09 b82d 0a00 7c3f
00000050: 6160 c3bf 138e 9abf 3ee3 a5bf 8562 923f
